{"format": "graph-model", "generatedBy": "2.15.0", "convertedBy": "TensorFlow.js Converter v4.16.0", "signature": {"inputs": {"embedding_input": {"name": "embedding_input:0", "dtype": "DT_FLOAT", "tensorShape": {"dim": [{"size": "-1"}, {"size": "50"}]}}}, "outputs": {"dense_1": {"name": "Identity:0", "dtype": "DT_FLOAT", "tensorShape": {"dim": [{"size": "-1"}, {"size": "5"}]}}}}, "modelTopology": {"node": [{"name": "StatefulPartitionedCall/sequential/bidirectional_1/forward_gru/PartitionedCall/TensorArrayV2_1/element_shape", "op": "Const", "attr": {"value": {"tensor": {"dtype": "DT_INT32", "tensorShape": {"dim": [{"size": "2"}]}}}, "dtype": {"type": "DT_INT32"}}}, {"name": "StatefulPartitionedCall/sequential/bidirectional_1/forward_gru/PartitionedCall/TensorArrayV2_1/num_elements", "op": "Const", "attr": {"value": {"tensor": {"dtype": "DT_INT32", "tensorShape": {}}}, "dtype": {"type": "DT_INT32"}}}, {"name": "StatefulPartitionedCall/sequential/bidirectional_1/forward_gru/PartitionedCall/TensorArrayUnstack/TensorListFromTensor/element_shape", "op": "Const", "attr": {"dtype": {"type": "DT_INT32"}, "value": {"tensor": {"dtype": "DT_INT32", "tensorShape": {"dim": [{"size": "2"}]}}}}}, {"name": "StatefulPartitionedCall/sequential/bidirectional_1/forward_gru/Read/ReadVariableOp", "op": "Const", "attr": {"value": {"tensor": {"dtype": "DT_FLOAT", "tensorShape": {"dim": [{"size": "128"}, {"size": "96"}]}}}, "dtype": {"type": "DT_FLOAT"}}}, {"name": "ConstantFolding/StatefulPartitionedCall/sequential/bidirectional_1/forward_gru/PartitionedCall/unstack-folded-0", "op": "Const", "attr": {"dtype": {"type": "DT_FLOAT"}, "value": {"tensor": {"dtype": "DT_FLOAT", "tensorShape": {"dim": [{"size": "96"}]}}}}}, {"name": "StatefulPartitionedCall/sequential/bidirectional_1/forward_gru/strided_slice/stack", "op": "Const", "attr": {"dtype": {"type": "DT_INT32"}, "value": {"tensor": {"dtype": "DT_INT32", "tensorShape": {"dim": [{"size": "1"}]}}}}}, {"name": "StatefulPartitionedCall/sequential/bidirectional_1/forward_gru/strided_slice/stack_1", "op": "Const", "attr": {"dtype": {"type": "DT_INT32"}, "value": {"tensor": {"dtype": "DT_INT32", "tensorShape": {"dim": [{"size": "1"}]}}}}}, {"name": "StatefulPartitionedCall/sequential/bidirectional_1/forward_gru/strided_slice/stack_2", "op": "Const", "attr": {"dtype": {"type": "DT_INT32"}, "value": {"tensor": {"dtype": "DT_INT32", "tensorShape": {"dim": [{"size": "1"}]}}}}}, {"name": "StatefulPartitionedCall/sequential/bidirectional_1/forward_gru/zeros/packed/1", "op": "Const", "attr": {"dtype": {"type": "DT_INT32"}, "value": {"tensor": {"dtype": "DT_INT32", "tensorShape": {}}}}}, {"name": "StatefulPartitionedCall/sequential/bidirectional_1/forward_gru/zeros/Const", "op": "Const", "attr": {"dtype": {"type": "DT_FLOAT"}, "value": {"tensor": {"dtype": "DT_FLOAT", "tensorShape": {}}}}}, {"name": "StatefulPartitionedCall/sequential/bidirectional_1/forward_gru/Read_1/ReadVariableOp", "op": "Const", "attr": {"value": {"tensor": {"dtype": "DT_FLOAT", "tensorShape": {"dim": [{"size": "32"}, {"size": "96"}]}}}, "dtype": {"type": "DT_FLOAT"}}}, {"name": "ConstantFolding/StatefulPartitionedCall/sequential/bidirectional_1/forward_gru/PartitionedCall/unstack-folded-1", "op": "Const", "attr": {"dtype": {"type": "DT_FLOAT"}, "value": {"tensor": {"dtype": "DT_FLOAT", "tensorShape": {"dim": [{"size": "96"}]}}}}}, {"name": "StatefulPartitionedCall/sequential/bidirectional_1/forward_gru/PartitionedCall/time", "op": "Const", "attr": {"value": {"tensor": {"dtype": "DT_INT32", "tensorShape": {}}}, "dtype": {"type": "DT_INT32"}}}, {"name": "StatefulPartitionedCall/sequential/bidirectional_1/forward_gru/PartitionedCall/transpose/perm", "op": "Const", "attr": {"dtype": {"type": "DT_INT32"}, "value": {"tensor": {"dtype": "DT_INT32", "tensorShape": {"dim": [{"size": "3"}]}}}}}, {"name": "StatefulPartitionedCall/sequential/bidirectional_1/forward_gru/PartitionedCall/strided_slice/stack", "op": "Const", "attr": {"value": {"tensor": {"dtype": "DT_INT32", "tensorShape": {"dim": [{"size": "1"}]}}}, "dtype": {"type": "DT_INT32"}}}, {"name": "StatefulPartitionedCall/sequential/bidirectional_1/forward_gru/PartitionedCall/strided_slice/stack_1", "op": "Const", "attr": {"value": {"tensor": {"dtype": "DT_INT32", "tensorShape": {"dim": [{"size": "1"}]}}}, "dtype": {"type": "DT_INT32"}}}, {"name": "StatefulPartitionedCall/sequential/bidirectional_1/forward_gru/PartitionedCall/strided_slice/stack_2", "op": "Const", "attr": {"dtype": {"type": "DT_INT32"}, "value": {"tensor": {"dtype": "DT_INT32", "tensorShape": {"dim": [{"size": "1"}]}}}}}, {"name": "StatefulPartitionedCall/sequential/bidirectional_1/forward_gru/PartitionedCall/while/loop_counter", "op": "Const", "attr": {"dtype": {"type": "DT_INT32"}, "value": {"tensor": {"dtype": "DT_INT32", "tensorShape": {}}}}}, {"name": "StatefulPartitionedCall/sequential/bidirectional_1/forward_gru/PartitionedCall/TensorArrayV2Stack/TensorListStack/element_shape", "op": "Const", "attr": {"value": {"tensor": {"dtype": "DT_INT32", "tensorShape": {"dim": [{"size": "2"}]}}}, "dtype": {"type": "DT_INT32"}}}, {"name": "StatefulPartitionedCall/sequential/bidirectional_1/forward_gru/PartitionedCall/strided_slice_2/stack", "op": "Const", "attr": {"dtype": {"type": "DT_INT32"}, "value": {"tensor": {"dtype": "DT_INT32", "tensorShape": {"dim": [{"size": "1"}]}}}}}, {"name": "StatefulPartitionedCall/sequential/bidirectional_1/forward_gru/PartitionedCall/strided_slice_2/stack_1", "op": "Const", "attr": {"dtype": {"type": "DT_INT32"}, "value": {"tensor": {"dtype": "DT_INT32", "tensorShape": {"dim": [{"size": "1"}]}}}}}, {"name": "StatefulPartitionedCall/sequential/bidirectional_1/forward_gru/PartitionedCall/strided_slice_2/stack_2", "op": "Const", "attr": {"value": {"tensor": {"dtype": "DT_INT32", "tensorShape": {"dim": [{"size": "1"}]}}}, "dtype": {"type": "DT_INT32"}}}, {"name": "StatefulPartitionedCall/sequential/bidirectional_1/backward_gru/PartitionedCall/TensorArrayV2_1/element_shape", "op": "Const", "attr": {"dtype": {"type": "DT_INT32"}, "value": {"tensor": {"dtype": "DT_INT32", "tensorShape": {"dim": [{"size": "2"}]}}}}}, {"name": "StatefulPartitionedCall/sequential/bidirectional_1/backward_gru/PartitionedCall/TensorArrayV2_1/num_elements", "op": "Const", "attr": {"dtype": {"type": "DT_INT32"}, "value": {"tensor": {"dtype": "DT_INT32", "tensorShape": {}}}}}, {"name": "StatefulPartitionedCall/sequential/bidirectional_1/backward_gru/PartitionedCall/ReverseV2/axis", "op": "Const", "attr": {"value": {"tensor": {"dtype": "DT_INT32", "tensorShape": {"dim": [{"size": "1"}]}}}, "dtype": {"type": "DT_INT32"}}}, {"name": "StatefulPartitionedCall/sequential/bidirectional_1/backward_gru/PartitionedCall/TensorArrayUnstack/TensorListFromTensor/element_shape", "op": "Const", "attr": {"value": {"tensor": {"dtype": "DT_INT32", "tensorShape": {"dim": [{"size": "2"}]}}}, "dtype": {"type": "DT_INT32"}}}, {"name": "StatefulPartitionedCall/sequential/bidirectional_1/backward_gru/Read/ReadVariableOp", "op": "Const", "attr": {"dtype": {"type": "DT_FLOAT"}, "value": {"tensor": {"dtype": "DT_FLOAT", "tensorShape": {"dim": [{"size": "128"}, {"size": "96"}]}}}}}, {"name": "ConstantFolding/StatefulPartitionedCall/sequential/bidirectional_1/backward_gru/PartitionedCall/unstack-folded-0", "op": "Const", "attr": {"dtype": {"type": "DT_FLOAT"}, "value": {"tensor": {"dtype": "DT_FLOAT", "tensorShape": {"dim": [{"size": "96"}]}}}}}, {"name": "StatefulPartitionedCall/sequential/bidirectional_1/backward_gru/strided_slice/stack", "op": "Const", "attr": {"value": {"tensor": {"dtype": "DT_INT32", "tensorShape": {"dim": [{"size": "1"}]}}}, "dtype": {"type": "DT_INT32"}}}, {"name": "StatefulPartitionedCall/sequential/bidirectional_1/backward_gru/strided_slice/stack_1", "op": "Const", "attr": {"dtype": {"type": "DT_INT32"}, "value": {"tensor": {"dtype": "DT_INT32", "tensorShape": {"dim": [{"size": "1"}]}}}}}, {"name": "StatefulPartitionedCall/sequential/bidirectional_1/backward_gru/strided_slice/stack_2", "op": "Const", "attr": {"dtype": {"type": "DT_INT32"}, "value": {"tensor": {"dtype": "DT_INT32", "tensorShape": {"dim": [{"size": "1"}]}}}}}, {"name": "StatefulPartitionedCall/sequential/bidirectional_1/backward_gru/zeros/packed/1", "op": "Const", "attr": {"value": {"tensor": {"dtype": "DT_INT32", "tensorShape": {}}}, "dtype": {"type": "DT_INT32"}}}, {"name": "StatefulPartitionedCall/sequential/bidirectional_1/backward_gru/zeros/Const", "op": "Const", "attr": {"dtype": {"type": "DT_FLOAT"}, "value": {"tensor": {"dtype": "DT_FLOAT", "tensorShape": {}}}}}, {"name": "StatefulPartitionedCall/sequential/bidirectional_1/backward_gru/Read_1/ReadVariableOp", "op": "Const", "attr": {"value": {"tensor": {"dtype": "DT_FLOAT", "tensorShape": {"dim": [{"size": "32"}, {"size": "96"}]}}}, "dtype": {"type": "DT_FLOAT"}}}, {"name": "ConstantFolding/StatefulPartitionedCall/sequential/bidirectional_1/backward_gru/PartitionedCall/unstack-folded-1", "op": "Const", "attr": {"value": {"tensor": {"dtype": "DT_FLOAT", "tensorShape": {"dim": [{"size": "96"}]}}}, "dtype": {"type": "DT_FLOAT"}}}, {"name": "StatefulPartitionedCall/sequential/bidirectional_1/backward_gru/PartitionedCall/time", "op": "Const", "attr": {"dtype": {"type": "DT_INT32"}, "value": {"tensor": {"dtype": "DT_INT32", "tensorShape": {}}}}}, {"name": "StatefulPartitionedCall/sequential/bidirectional/forward_lstm/PartitionedCall/TensorArrayV2_1/element_shape", "op": "Const", "attr": {"value": {"tensor": {"dtype": "DT_INT32", "tensorShape": {"dim": [{"size": "2"}]}}}, "dtype": {"type": "DT_INT32"}}}, {"name": "StatefulPartitionedCall/sequential/bidirectional/forward_lstm/zeros_1/packed/1", "op": "Const", "attr": {"dtype": {"type": "DT_INT32"}, "value": {"tensor": {"dtype": "DT_INT32", "tensorShape": {}}}}}, {"name": "StatefulPartitionedCall/sequential/bidirectional/forward_lstm/zeros_1/Const", "op": "Const", "attr": {"dtype": {"type": "DT_FLOAT"}, "value": {"tensor": {"dtype": "DT_FLOAT", "tensorShape": {}}}}}, {"name": "StatefulPartitionedCall/sequential/bidirectional/forward_lstm/PartitionedCall/TensorArrayUnstack/TensorListFromTensor/element_shape", "op": "Const", "attr": {"dtype": {"type": "DT_INT32"}, "value": {"tensor": {"dtype": "DT_INT32", "tensorShape": {"dim": [{"size": "2"}]}}}}}, {"name": "StatefulPartitionedCall/sequential/bidirectional/forward_lstm/Read/ReadVariableOp", "op": "Const", "attr": {"value": {"tensor": {"dtype": "DT_FLOAT", "tensorShape": {"dim": [{"size": "128"}, {"size": "256"}]}}}, "dtype": {"type": "DT_FLOAT"}}}, {"name": "StatefulPartitionedCall/sequential/bidirectional/forward_lstm/strided_slice/stack", "op": "Const", "attr": {"dtype": {"type": "DT_INT32"}, "value": {"tensor": {"dtype": "DT_INT32", "tensorShape": {"dim": [{"size": "1"}]}}}}}, {"name": "StatefulPartitionedCall/sequential/bidirectional/forward_lstm/strided_slice/stack_1", "op": "Const", "attr": {"dtype": {"type": "DT_INT32"}, "value": {"tensor": {"dtype": "DT_INT32", "tensorShape": {"dim": [{"size": "1"}]}}}}}, {"name": "StatefulPartitionedCall/sequential/bidirectional/forward_lstm/strided_slice/stack_2", "op": "Const", "attr": {"dtype": {"type": "DT_INT32"}, "value": {"tensor": {"dtype": "DT_INT32", "tensorShape": {"dim": [{"size": "1"}]}}}}}, {"name": "StatefulPartitionedCall/sequential/bidirectional/forward_lstm/zeros/packed/1", "op": "Const", "attr": {"dtype": {"type": "DT_INT32"}, "value": {"tensor": {"dtype": "DT_INT32", "tensorShape": {}}}}}, {"name": "StatefulPartitionedCall/sequential/bidirectional/forward_lstm/zeros/Const", "op": "Const", "attr": {"dtype": {"type": "DT_FLOAT"}, "value": {"tensor": {"dtype": "DT_FLOAT", "tensorShape": {}}}}}, {"name": "StatefulPartitionedCall/sequential/bidirectional/forward_lstm/Read_1/ReadVariableOp", "op": "Const", "attr": {"value": {"tensor": {"dtype": "DT_FLOAT", "tensorShape": {"dim": [{"size": "64"}, {"size": "256"}]}}}, "dtype": {"type": "DT_FLOAT"}}}, {"name": "StatefulPartitionedCall/sequential/bidirectional/forward_lstm/Read_2/ReadVariableOp", "op": "Const", "attr": {"value": {"tensor": {"dtype": "DT_FLOAT", "tensorShape": {"dim": [{"size": "256"}]}}}, "dtype": {"type": "DT_FLOAT"}}}, {"name": "StatefulPartitionedCall/sequential/bidirectional/forward_lstm/PartitionedCall/time", "op": "Const", "attr": {"value": {"tensor": {"dtype": "DT_INT32", "tensorShape": {}}}, "dtype": {"type": "DT_INT32"}}}, {"name": "StatefulPartitionedCall/sequential/bidirectional/forward_lstm/PartitionedCall/transpose/perm", "op": "Const", "attr": {"value": {"tensor": {"dtype": "DT_INT32", "tensorShape": {"dim": [{"size": "3"}]}}}, "dtype": {"type": "DT_INT32"}}}, {"name": "StatefulPartitionedCall/sequential/bidirectional/forward_lstm/PartitionedCall/strided_slice/stack", "op": "Const", "attr": {"dtype": {"type": "DT_INT32"}, "value": {"tensor": {"dtype": "DT_INT32", "tensorShape": {"dim": [{"size": "1"}]}}}}}, {"name": "StatefulPartitionedCall/sequential/bidirectional/forward_lstm/PartitionedCall/strided_slice/stack_1", "op": "Const", "attr": {"dtype": {"type": "DT_INT32"}, "value": {"tensor": {"dtype": "DT_INT32", "tensorShape": {"dim": [{"size": "1"}]}}}}}, {"name": "StatefulPartitionedCall/sequential/bidirectional/forward_lstm/PartitionedCall/strided_slice/stack_2", "op": "Const", "attr": {"dtype": {"type": "DT_INT32"}, "value": {"tensor": {"dtype": "DT_INT32", "tensorShape": {"dim": [{"size": "1"}]}}}}}, {"name": "StatefulPartitionedCall/sequential/bidirectional/forward_lstm/PartitionedCall/while/loop_counter", "op": "Const", "attr": {"dtype": {"type": "DT_INT32"}, "value": {"tensor": {"dtype": "DT_INT32", "tensorShape": {}}}}}, {"name": "StatefulPartitionedCall/sequential/bidirectional/forward_lstm/PartitionedCall/TensorArrayV2Stack/TensorListStack/element_shape", "op": "Const", "attr": {"dtype": {"type": "DT_INT32"}, "value": {"tensor": {"dtype": "DT_INT32", "tensorShape": {"dim": [{"size": "2"}]}}}}}, {"name": "StatefulPartitionedCall/sequential/bidirectional/forward_lstm/PartitionedCall/transpose_1/perm", "op": "Const", "attr": {"value": {"tensor": {"dtype": "DT_INT32", "tensorShape": {"dim": [{"size": "3"}]}}}, "dtype": {"type": "DT_INT32"}}}, {"name": "StatefulPartitionedCall/sequential/bidirectional/backward_lstm/PartitionedCall/TensorArrayV2_1/element_shape", "op": "Const", "attr": {"value": {"tensor": {"dtype": "DT_INT32", "tensorShape": {"dim": [{"size": "2"}]}}}, "dtype": {"type": "DT_INT32"}}}, {"name": "StatefulPartitionedCall/sequential/bidirectional/backward_lstm/zeros_1/packed/1", "op": "Const", "attr": {"dtype": {"type": "DT_INT32"}, "value": {"tensor": {"dtype": "DT_INT32", "tensorShape": {}}}}}, {"name": "StatefulPartitionedCall/sequential/bidirectional/backward_lstm/zeros_1/Const", "op": "Const", "attr": {"value": {"tensor": {"dtype": "DT_FLOAT", "tensorShape": {}}}, "dtype": {"type": "DT_FLOAT"}}}, {"name": "StatefulPartitionedCall/sequential/bidirectional/backward_lstm/PartitionedCall/ReverseV2/axis", "op": "Const", "attr": {"value": {"tensor": {"dtype": "DT_INT32", "tensorShape": {"dim": [{"size": "1"}]}}}, "dtype": {"type": "DT_INT32"}}}, {"name": "StatefulPartitionedCall/sequential/bidirectional/backward_lstm/PartitionedCall/TensorArrayUnstack/TensorListFromTensor/element_shape", "op": "Const", "attr": {"value": {"tensor": {"dtype": "DT_INT32", "tensorShape": {"dim": [{"size": "2"}]}}}, "dtype": {"type": "DT_INT32"}}}, {"name": "StatefulPartitionedCall/sequential/bidirectional/backward_lstm/Read/ReadVariableOp", "op": "Const", "attr": {"dtype": {"type": "DT_FLOAT"}, "value": {"tensor": {"dtype": "DT_FLOAT", "tensorShape": {"dim": [{"size": "128"}, {"size": "256"}]}}}}}, {"name": "StatefulPartitionedCall/sequential/bidirectional/backward_lstm/strided_slice/stack", "op": "Const", "attr": {"value": {"tensor": {"dtype": "DT_INT32", "tensorShape": {"dim": [{"size": "1"}]}}}, "dtype": {"type": "DT_INT32"}}}, {"name": "StatefulPartitionedCall/sequential/bidirectional/backward_lstm/strided_slice/stack_1", "op": "Const", "attr": {"value": {"tensor": {"dtype": "DT_INT32", "tensorShape": {"dim": [{"size": "1"}]}}}, "dtype": {"type": "DT_INT32"}}}, {"name": "StatefulPartitionedCall/sequential/bidirectional/backward_lstm/strided_slice/stack_2", "op": "Const", "attr": {"value": {"tensor": {"dtype": "DT_INT32", "tensorShape": {"dim": [{"size": "1"}]}}}, "dtype": {"type": "DT_INT32"}}}, {"name": "StatefulPartitionedCall/sequential/bidirectional/backward_lstm/zeros/packed/1", "op": "Const", "attr": {"dtype": {"type": "DT_INT32"}, "value": {"tensor": {"dtype": "DT_INT32", "tensorShape": {}}}}}, {"name": "StatefulPartitionedCall/sequential/bidirectional/backward_lstm/zeros/Const", "op": "Const", "attr": {"value": {"tensor": {"dtype": "DT_FLOAT", "tensorShape": {}}}, "dtype": {"type": "DT_FLOAT"}}}, {"name": "StatefulPartitionedCall/sequential/bidirectional/backward_lstm/Read_1/ReadVariableOp", "op": "Const", "attr": {"dtype": {"type": "DT_FLOAT"}, "value": {"tensor": {"dtype": "DT_FLOAT", "tensorShape": {"dim": [{"size": "64"}, {"size": "256"}]}}}}}, {"name": "StatefulPartitionedCall/sequential/bidirectional/backward_lstm/Read_2/ReadVariableOp", "op": "Const", "attr": {"dtype": {"type": "DT_FLOAT"}, "value": {"tensor": {"dtype": "DT_FLOAT", "tensorShape": {"dim": [{"size": "256"}]}}}}}, {"name": "StatefulPartitionedCall/sequential/bidirectional/backward_lstm/PartitionedCall/time", "op": "Const", "attr": {"value": {"tensor": {"dtype": "DT_INT32", "tensorShape": {}}}, "dtype": {"type": "DT_INT32"}}}, {"name": "StatefulPartitionedCall/sequential/bidirectional/backward_lstm/PartitionedCall/transpose/perm", "op": "Const", "attr": {"value": {"tensor": {"dtype": "DT_INT32", "tensorShape": {"dim": [{"size": "3"}]}}}, "dtype": {"type": "DT_INT32"}}}, {"name": "StatefulPartitionedCall/sequential/bidirectional/backward_lstm/PartitionedCall/strided_slice/stack", "op": "Const", "attr": {"value": {"tensor": {"dtype": "DT_INT32", "tensorShape": {"dim": [{"size": "1"}]}}}, "dtype": {"type": "DT_INT32"}}}, {"name": "StatefulPartitionedCall/sequential/bidirectional/backward_lstm/PartitionedCall/strided_slice/stack_1", "op": "Const", "attr": {"dtype": {"type": "DT_INT32"}, "value": {"tensor": {"dtype": "DT_INT32", "tensorShape": {"dim": [{"size": "1"}]}}}}}, {"name": "StatefulPartitionedCall/sequential/bidirectional/backward_lstm/PartitionedCall/strided_slice/stack_2", "op": "Const", "attr": {"value": {"tensor": {"dtype": "DT_INT32", "tensorShape": {"dim": [{"size": "1"}]}}}, "dtype": {"type": "DT_INT32"}}}, {"name": "StatefulPartitionedCall/sequential/bidirectional/backward_lstm/PartitionedCall/while/loop_counter", "op": "Const", "attr": {"dtype": {"type": "DT_INT32"}, "value": {"tensor": {"dtype": "DT_INT32", "tensorShape": {}}}}}, {"name": "StatefulPartitionedCall/sequential/bidirectional/backward_lstm/PartitionedCall/TensorArrayV2Stack/TensorListStack/element_shape", "op": "Const", "attr": {"dtype": {"type": "DT_INT32"}, "value": {"tensor": {"dtype": "DT_INT32", "tensorShape": {"dim": [{"size": "2"}]}}}}}, {"name": "StatefulPartitionedCall/sequential/bidirectional/backward_lstm/PartitionedCall/transpose_1/perm", "op": "Const", "attr": {"value": {"tensor": {"dtype": "DT_INT32", "tensorShape": {"dim": [{"size": "3"}]}}}, "dtype": {"type": "DT_INT32"}}}, {"name": "StatefulPartitionedCall/sequential/bidirectional/ReverseV2/axis", "op": "Const", "attr": {"dtype": {"type": "DT_INT32"}, "value": {"tensor": {"dtype": "DT_INT32", "tensorShape": {"dim": [{"size": "1"}]}}}}}, {"name": "StatefulPartitionedCall/sequential/bidirectional/concat/axis", "op": "Const", "attr": {"value": {"tensor": {"dtype": "DT_INT32", "tensorShape": {}}}, "dtype": {"type": "DT_INT32"}}}, {"name": "StatefulPartitionedCall/sequential/bidirectional_1/backward_gru/PartitionedCall/transpose/perm", "op": "Const", "attr": {"dtype": {"type": "DT_INT32"}, "value": {"tensor": {"dtype": "DT_INT32", "tensorShape": {"dim": [{"size": "3"}]}}}}}, {"name": "StatefulPartitionedCall/sequential/bidirectional_1/backward_gru/PartitionedCall/strided_slice/stack", "op": "Const", "attr": {"value": {"tensor": {"dtype": "DT_INT32", "tensorShape": {"dim": [{"size": "1"}]}}}, "dtype": {"type": "DT_INT32"}}}, {"name": "StatefulPartitionedCall/sequential/bidirectional_1/backward_gru/PartitionedCall/strided_slice/stack_1", "op": "Const", "attr": {"value": {"tensor": {"dtype": "DT_INT32", "tensorShape": {"dim": [{"size": "1"}]}}}, "dtype": {"type": "DT_INT32"}}}, {"name": "StatefulPartitionedCall/sequential/bidirectional_1/backward_gru/PartitionedCall/strided_slice/stack_2", "op": "Const", "attr": {"value": {"tensor": {"dtype": "DT_INT32", "tensorShape": {"dim": [{"size": "1"}]}}}, "dtype": {"type": "DT_INT32"}}}, {"name": "StatefulPartitionedCall/sequential/bidirectional_1/backward_gru/PartitionedCall/while/loop_counter", "op": "Const", "attr": {"value": {"tensor": {"dtype": "DT_INT32", "tensorShape": {}}}, "dtype": {"type": "DT_INT32"}}}, {"name": "StatefulPartitionedCall/sequential/bidirectional_1/backward_gru/PartitionedCall/TensorArrayV2Stack/TensorListStack/element_shape", "op": "Const", "attr": {"dtype": {"type": "DT_INT32"}, "value": {"tensor": {"dtype": "DT_INT32", "tensorShape": {"dim": [{"size": "2"}]}}}}}, {"name": "StatefulPartitionedCall/sequential/bidirectional_1/backward_gru/PartitionedCall/strided_slice_2/stack", "op": "Const", "attr": {"dtype": {"type": "DT_INT32"}, "value": {"tensor": {"dtype": "DT_INT32", "tensorShape": {"dim": [{"size": "1"}]}}}}}, {"name": "StatefulPartitionedCall/sequential/bidirectional_1/backward_gru/PartitionedCall/strided_slice_2/stack_1", "op": "Const", "attr": {"dtype": {"type": "DT_INT32"}, "value": {"tensor": {"dtype": "DT_INT32", "tensorShape": {"dim": [{"size": "1"}]}}}}}, {"name": "StatefulPartitionedCall/sequential/bidirectional_1/backward_gru/PartitionedCall/strided_slice_2/stack_2", "op": "Const", "attr": {"dtype": {"type": "DT_INT32"}, "value": {"tensor": {"dtype": "DT_INT32", "tensorShape": {"dim": [{"size": "1"}]}}}}}, {"name": "StatefulPartitionedCall/sequential/bidirectional_1/concat/axis", "op": "Const", "attr": {"value": {"tensor": {"dtype": "DT_INT32", "tensorShape": {}}}, "dtype": {"type": "DT_INT32"}}}, {"name": "StatefulPartitionedCall/sequential/dense/MatMul/ReadVariableOp", "op": "Const", "attr": {"dtype": {"type": "DT_FLOAT"}, "value": {"tensor": {"dtype": "DT_FLOAT", "tensorShape": {"dim": [{"size": "64"}, {"size": "32"}]}}}}}, {"name": "StatefulPartitionedCall/sequential/dense/BiasAdd/ReadVariableOp", "op": "Const", "attr": {"dtype": {"type": "DT_FLOAT"}, "value": {"tensor": {"dtype": "DT_FLOAT", "tensorShape": {"dim": [{"size": "32"}]}}}}}, {"name": "StatefulPartitionedCall/sequential/dense_1/MatMul/ReadVariableOp", "op": "Const", "attr": {"value": {"tensor": {"dtype": "DT_FLOAT", "tensorShape": {"dim": [{"size": "32"}, {"size": "5"}]}}}, "dtype": {"type": "DT_FLOAT"}}}, {"name": "StatefulPartitionedCall/sequential/dense_1/BiasAdd/ReadVariableOp", "op": "Const", "attr": {"value": {"tensor": {"dtype": "DT_FLOAT", "tensorShape": {"dim": [{"size": "5"}]}}}, "dtype": {"type": "DT_FLOAT"}}}, {"name": "unknown", "op": "Const", "attr": {"dtype": {"type": "DT_FLOAT"}, "value": {"tensor": {"dtype": "DT_FLOAT", "tensorShape": {"dim": [{"size": "15000"}, {"size": "128"}]}}}}}, {"name": "StatefulPartitionedCall/sequential/embedding/embedding_lookup/axis", "op": "Const", "attr": {"value": {"tensor": {"dtype": "DT_INT32", "tensorShape": {}}}, "dtype": {"type": "DT_INT32"}}}, {"name": "embedding_input", "op": "Placeholder", "attr": {"dtype": {"type": "DT_FLOAT"}, "shape": {"shape": {"dim": [{"size": "-1"}, {"size": "50"}]}}}}, {"name": "StatefulPartitionedCall/sequential/bidirectional_1/forward_gru/PartitionedCall/TensorArrayV2_1", "op": "TensorListReserve", "input": ["StatefulPartitionedCall/sequential/bidirectional_1/forward_gru/PartitionedCall/TensorArrayV2_1/element_shape", "StatefulPartitionedCall/sequential/bidirectional_1/forward_gru/PartitionedCall/TensorArrayV2_1/num_elements"], "attr": {"element_dtype": {"type": "DT_FLOAT"}, "shape_type": {"type": "DT_INT32"}}, "experimentalType": {"typeId": "TFT_PRODUCT", "args": [{"typeId": "TFT_ARRAY", "args": [{"typeId": "TFT_TENSOR", "args": [{"typeId": "TFT_FLOAT"}]}]}]}}, {"name": "StatefulPartitionedCall/sequential/bidirectional_1/forward_gru/PartitionedCall/while/enter/_189", "op": "Enter", "input": ["StatefulPartitionedCall/sequential/bidirectional_1/forward_gru/Read/ReadVariableOp"], "attr": {"is_constant": {"b": false}, "parallel_iterations": {"i": "32"}, "T": {"type": "DT_FLOAT"}, "frame_name": {"s": "U3RhdGVmdWxQYXJ0aXRpb25lZENhbGwvc2VxdWVudGlhbC9iaWRpcmVjdGlvbmFsXzEvZm9yd2FyZF9ncnUvUGFydGl0aW9uZWRDYWxsL3doaWxl"}}}, {"name": "StatefulPartitionedCall/sequential/bidirectional_1/forward_gru/PartitionedCall/while/enter/_190", "op": "Enter", "input": ["ConstantFolding/StatefulPartitionedCall/sequential/bidirectional_1/forward_gru/PartitionedCall/unstack-folded-0"], "attr": {"parallel_iterations": {"i": "32"}, "T": {"type": "DT_FLOAT"}, "frame_name": {"s": "U3RhdGVmdWxQYXJ0aXRpb25lZENhbGwvc2VxdWVudGlhbC9iaWRpcmVjdGlvbmFsXzEvZm9yd2FyZF9ncnUvUGFydGl0aW9uZWRDYWxsL3doaWxl"}, "is_constant": {"b": false}}}, {"name": "StatefulPartitionedCall/sequential/bidirectional_1/forward_gru/PartitionedCall/while/enter/_191", "op": "Enter", "input": ["StatefulPartitionedCall/sequential/bidirectional_1/forward_gru/Read_1/ReadVariableOp"], "attr": {"frame_name": {"s": "U3RhdGVmdWxQYXJ0aXRpb25lZENhbGwvc2VxdWVudGlhbC9iaWRpcmVjdGlvbmFsXzEvZm9yd2FyZF9ncnUvUGFydGl0aW9uZWRDYWxsL3doaWxl"}, "parallel_iterations": {"i": "32"}, "T": {"type": "DT_FLOAT"}, "is_constant": {"b": false}}}, {"name": "StatefulPartitionedCall/sequential/bidirectional_1/forward_gru/PartitionedCall/while/enter/_192", "op": "Enter", "input": ["ConstantFolding/StatefulPartitionedCall/sequential/bidirectional_1/forward_gru/PartitionedCall/unstack-folded-1"], "attr": {"is_constant": {"b": false}, "parallel_iterations": {"i": "32"}, "T": {"type": "DT_FLOAT"}, "frame_name": {"s": "U3RhdGVmdWxQYXJ0aXRpb25lZENhbGwvc2VxdWVudGlhbC9iaWRpcmVjdGlvbmFsXzEvZm9yd2FyZF9ncnUvUGFydGl0aW9uZWRDYWxsL3doaWxl"}}}, {"name": "StatefulPartitionedCall/sequential/bidirectional_1/forward_gru/PartitionedCall/while/enter/_184", "op": "Enter", "input": ["StatefulPartitionedCall/sequential/bidirectional_1/forward_gru/PartitionedCall/time"], "attr": {"T": {"type": "DT_INT32"}, "is_constant": {"b": false}, "parallel_iterations": {"i": "32"}, "frame_name": {"s": "U3RhdGVmdWxQYXJ0aXRpb25lZENhbGwvc2VxdWVudGlhbC9iaWRpcmVjdGlvbmFsXzEvZm9yd2FyZF9ncnUvUGFydGl0aW9uZWRDYWxsL3doaWxl"}}}, {"name": "StatefulPartitionedCall/sequential/bidirectional_1/forward_gru/PartitionedCall/while/enter/_182", "op": "Enter", "input": ["StatefulPartitionedCall/sequential/bidirectional_1/forward_gru/PartitionedCall/while/loop_counter"], "attr": {"parallel_iterations": {"i": "32"}, "is_constant": {"b": false}, "T": {"type": "DT_INT32"}, "frame_name": {"s": "U3RhdGVmdWxQYXJ0aXRpb25lZENhbGwvc2VxdWVudGlhbC9iaWRpcmVjdGlvbmFsXzEvZm9yd2FyZF9ncnUvUGFydGl0aW9uZWRDYWxsL3doaWxl"}}}, {"name": "StatefulPartitionedCall/sequential/bidirectional_1/backward_gru/PartitionedCall/TensorArrayV2_1", "op": "TensorListReserve", "input": ["StatefulPartitionedCall/sequential/bidirectional_1/backward_gru/PartitionedCall/TensorArrayV2_1/element_shape", "StatefulPartitionedCall/sequential/bidirectional_1/backward_gru/PartitionedCall/TensorArrayV2_1/num_elements"], "attr": {"element_dtype": {"type": "DT_FLOAT"}, "shape_type": {"type": "DT_INT32"}}, "experimentalType": {"typeId": "TFT_PRODUCT", "args": [{"typeId": "TFT_ARRAY", "args": [{"typeId": "TFT_TENSOR", "args": [{"typeId": "TFT_FLOAT"}]}]}]}}, {"name": "StatefulPartitionedCall/sequential/bidirectional_1/backward_gru/PartitionedCall/while/enter/_249", "op": "Enter", "input": ["StatefulPartitionedCall/sequential/bidirectional_1/backward_gru/Read/ReadVariableOp"], "attr": {"frame_name": {"s": "U3RhdGVmdWxQYXJ0aXRpb25lZENhbGwvc2VxdWVudGlhbC9iaWRpcmVjdGlvbmFsXzEvYmFja3dhcmRfZ3J1L1BhcnRpdGlvbmVkQ2FsbC93aGlsZQ=="}, "is_constant": {"b": false}, "parallel_iterations": {"i": "32"}, "T": {"type": "DT_FLOAT"}}}, {"name": "StatefulPartitionedCall/sequential/bidirectional_1/backward_gru/PartitionedCall/while/enter/_250", "op": "Enter", "input": ["ConstantFolding/StatefulPartitionedCall/sequential/bidirectional_1/backward_gru/PartitionedCall/unstack-folded-0"], "attr": {"is_constant": {"b": false}, "frame_name": {"s": "U3RhdGVmdWxQYXJ0aXRpb25lZENhbGwvc2VxdWVudGlhbC9iaWRpcmVjdGlvbmFsXzEvYmFja3dhcmRfZ3J1L1BhcnRpdGlvbmVkQ2FsbC93aGlsZQ=="}, "T": {"type": "DT_FLOAT"}, "parallel_iterations": {"i": "32"}}}, {"name": "StatefulPartitionedCall/sequential/bidirectional_1/backward_gru/PartitionedCall/while/enter/_251", "op": "Enter", "input": ["StatefulPartitionedCall/sequential/bidirectional_1/backward_gru/Read_1/ReadVariableOp"], "attr": {"is_constant": {"b": false}, "frame_name": {"s": "U3RhdGVmdWxQYXJ0aXRpb25lZENhbGwvc2VxdWVudGlhbC9iaWRpcmVjdGlvbmFsXzEvYmFja3dhcmRfZ3J1L1BhcnRpdGlvbmVkQ2FsbC93aGlsZQ=="}, "T": {"type": "DT_FLOAT"}, "parallel_iterations": {"i": "32"}}}, {"name": "StatefulPartitionedCall/sequential/bidirectional_1/backward_gru/PartitionedCall/while/enter/_252", "op": "Enter", "input": ["ConstantFolding/StatefulPartitionedCall/sequential/bidirectional_1/backward_gru/PartitionedCall/unstack-folded-1"], "attr": {"T": {"type": "DT_FLOAT"}, "is_constant": {"b": false}, "frame_name": {"s": "U3RhdGVmdWxQYXJ0aXRpb25lZENhbGwvc2VxdWVudGlhbC9iaWRpcmVjdGlvbmFsXzEvYmFja3dhcmRfZ3J1L1BhcnRpdGlvbmVkQ2FsbC93aGlsZQ=="}, "parallel_iterations": {"i": "32"}}}, {"name": "StatefulPartitionedCall/sequential/bidirectional_1/backward_gru/PartitionedCall/while/enter/_244", "op": "Enter", "input": ["StatefulPartitionedCall/sequential/bidirectional_1/backward_gru/PartitionedCall/time"], "attr": {"is_constant": {"b": false}, "parallel_iterations": {"i": "32"}, "frame_name": {"s": "U3RhdGVmdWxQYXJ0aXRpb25lZENhbGwvc2VxdWVudGlhbC9iaWRpcmVjdGlvbmFsXzEvYmFja3dhcmRfZ3J1L1BhcnRpdGlvbmVkQ2FsbC93aGlsZQ=="}, "T": {"type": "DT_INT32"}}}, {"name": "StatefulPartitionedCall/sequential/bidirectional/forward_lstm/PartitionedCall/while/enter/_70", "op": "Enter", "input": ["StatefulPartitionedCall/sequential/bidirectional/forward_lstm/Read/ReadVariableOp"], "attr": {"frame_name": {"s": "U3RhdGVmdWxQYXJ0aXRpb25lZENhbGwvc2VxdWVudGlhbC9iaWRpcmVjdGlvbmFsL2ZvcndhcmRfbHN0bS9QYXJ0aXRpb25lZENhbGwvd2hpbGU="}, "parallel_iterations": {"i": "32"}, "T": {"type": "DT_FLOAT"}, "is_constant": {"b": false}}}, {"name": "StatefulPartitionedCall/sequential/bidirectional/forward_lstm/PartitionedCall/while/enter/_71", "op": "Enter", "input": ["StatefulPartitionedCall/sequential/bidirectional/forward_lstm/Read_1/ReadVariableOp"], "attr": {"is_constant": {"b": false}, "T": {"type": "DT_FLOAT"}, "frame_name": {"s": "U3RhdGVmdWxQYXJ0aXRpb25lZENhbGwvc2VxdWVudGlhbC9iaWRpcmVjdGlvbmFsL2ZvcndhcmRfbHN0bS9QYXJ0aXRpb25lZENhbGwvd2hpbGU="}, "parallel_iterations": {"i": "32"}}}, {"name": "StatefulPartitionedCall/sequential/bidirectional/forward_lstm/PartitionedCall/while/enter/_72", "op": "Enter", "input": ["StatefulPartitionedCall/sequential/bidirectional/forward_lstm/Read_2/ReadVariableOp"], "attr": {"T": {"type": "DT_FLOAT"}, "parallel_iterations": {"i": "32"}, "is_constant": {"b": false}, "frame_name": {"s": "U3RhdGVmdWxQYXJ0aXRpb25lZENhbGwvc2VxdWVudGlhbC9iaWRpcmVjdGlvbmFsL2ZvcndhcmRfbHN0bS9QYXJ0aXRpb25lZENhbGwvd2hpbGU="}}}, {"name": "StatefulPartitionedCall/sequential/bidirectional/forward_lstm/PartitionedCall/while/enter/_64", "op": "Enter", "input": ["StatefulPartitionedCall/sequential/bidirectional/forward_lstm/PartitionedCall/time"], "attr": {"parallel_iterations": {"i": "32"}, "T": {"type": "DT_INT32"}, "frame_name": {"s": "U3RhdGVmdWxQYXJ0aXRpb25lZENhbGwvc2VxdWVudGlhbC9iaWRpcmVjdGlvbmFsL2ZvcndhcmRfbHN0bS9QYXJ0aXRpb25lZENhbGwvd2hpbGU="}, "is_constant": {"b": false}}}, {"name": "StatefulPartitionedCall/sequential/bidirectional/forward_lstm/PartitionedCall/while/enter/_62", "op": "Enter", "input": ["StatefulPartitionedCall/sequential/bidirectional/forward_lstm/PartitionedCall/while/loop_counter"], "attr": {"is_constant": {"b": false}, "frame_name": {"s": "U3RhdGVmdWxQYXJ0aXRpb25lZENhbGwvc2VxdWVudGlhbC9iaWRpcmVjdGlvbmFsL2ZvcndhcmRfbHN0bS9QYXJ0aXRpb25lZENhbGwvd2hpbGU="}, "parallel_iterations": {"i": "32"}, "T": {"type": "DT_INT32"}}}, {"name": "StatefulPartitionedCall/sequential/bidirectional/backward_lstm/PartitionedCall/while/enter/_130", "op": "Enter", "input": ["StatefulPartitionedCall/sequential/bidirectional/backward_lstm/Read/ReadVariableOp"], "attr": {"T": {"type": "DT_FLOAT"}, "is_constant": {"b": false}, "frame_name": {"s": "U3RhdGVmdWxQYXJ0aXRpb25lZENhbGwvc2VxdWVudGlhbC9iaWRpcmVjdGlvbmFsL2JhY2t3YXJkX2xzdG0vUGFydGl0aW9uZWRDYWxsL3doaWxl"}, "parallel_iterations": {"i": "32"}}}, {"name": "StatefulPartitionedCall/sequential/bidirectional/backward_lstm/PartitionedCall/while/enter/_131", "op": "Enter", "input": ["StatefulPartitionedCall/sequential/bidirectional/backward_lstm/Read_1/ReadVariableOp"], "attr": {"is_constant": {"b": false}, "frame_name": {"s": "U3RhdGVmdWxQYXJ0aXRpb25lZENhbGwvc2VxdWVudGlhbC9iaWRpcmVjdGlvbmFsL2JhY2t3YXJkX2xzdG0vUGFydGl0aW9uZWRDYWxsL3doaWxl"}, "parallel_iterations": {"i": "32"}, "T": {"type": "DT_FLOAT"}}}, {"name": "StatefulPartitionedCall/sequential/bidirectional/backward_lstm/PartitionedCall/while/enter/_132", "op": "Enter", "input": ["StatefulPartitionedCall/sequential/bidirectional/backward_lstm/Read_2/ReadVariableOp"], "attr": {"parallel_iterations": {"i": "32"}, "is_constant": {"b": false}, "T": {"type": "DT_FLOAT"}, "frame_name": {"s": "U3RhdGVmdWxQYXJ0aXRpb25lZENhbGwvc2VxdWVudGlhbC9iaWRpcmVjdGlvbmFsL2JhY2t3YXJkX2xzdG0vUGFydGl0aW9uZWRDYWxsL3doaWxl"}}}, {"name": "StatefulPartitionedCall/sequential/bidirectional/backward_lstm/PartitionedCall/while/enter/_124", "op": "Enter", "input": ["StatefulPartitionedCall/sequential/bidirectional/backward_lstm/PartitionedCall/time"], "attr": {"is_constant": {"b": false}, "parallel_iterations": {"i": "32"}, "frame_name": {"s": "U3RhdGVmdWxQYXJ0aXRpb25lZENhbGwvc2VxdWVudGlhbC9iaWRpcmVjdGlvbmFsL2JhY2t3YXJkX2xzdG0vUGFydGl0aW9uZWRDYWxsL3doaWxl"}, "T": {"type": "DT_INT32"}}}, {"name": "StatefulPartitionedCall/sequential/bidirectional/backward_lstm/PartitionedCall/while/enter/_122", "op": "Enter", "input": ["StatefulPartitionedCall/sequential/bidirectional/backward_lstm/PartitionedCall/while/loop_counter"], "attr": {"parallel_iterations": {"i": "32"}, "frame_name": {"s": "U3RhdGVmdWxQYXJ0aXRpb25lZENhbGwvc2VxdWVudGlhbC9iaWRpcmVjdGlvbmFsL2JhY2t3YXJkX2xzdG0vUGFydGl0aW9uZWRDYWxsL3doaWxl"}, "T": {"type": "DT_INT32"}, "is_constant": {"b": false}}}, {"name": "StatefulPartitionedCall/sequential/bidirectional_1/backward_gru/PartitionedCall/while/enter/_242", "op": "Enter", "input": ["StatefulPartitionedCall/sequential/bidirectional_1/backward_gru/PartitionedCall/while/loop_counter"], "attr": {"frame_name": {"s": "U3RhdGVmdWxQYXJ0aXRpb25lZENhbGwvc2VxdWVudGlhbC9iaWRpcmVjdGlvbmFsXzEvYmFja3dhcmRfZ3J1L1BhcnRpdGlvbmVkQ2FsbC93aGlsZQ=="}, "parallel_iterations": {"i": "32"}, "is_constant": {"b": false}, "T": {"type": "DT_INT32"}}}, {"name": "StatefulPartitionedCall/sequential/embedding/Cast", "op": "Cast", "input": ["embedding_input"], "attr": {"Truncate": {"b": false}, "SrcT": {"type": "DT_FLOAT"}, "DstT": {"type": "DT_INT32"}}}, {"name": "StatefulPartitionedCall/sequential/bidirectional_1/forward_gru/PartitionedCall/while/enter/_185", "op": "Enter", "input": ["StatefulPartitionedCall/sequential/bidirectional_1/forward_gru/PartitionedCall/TensorArrayV2_1"], "attr": {"parallel_iterations": {"i": "32"}, "frame_name": {"s": "U3RhdGVmdWxQYXJ0aXRpb25lZENhbGwvc2VxdWVudGlhbC9iaWRpcmVjdGlvbmFsXzEvZm9yd2FyZF9ncnUvUGFydGl0aW9uZWRDYWxsL3doaWxl"}, "is_constant": {"b": false}, "T": {"type": "DT_VARIANT"}}}, {"name": "StatefulPartitionedCall/sequential/bidirectional_1/forward_gru/PartitionedCall/while/merge/_200", "op": "Merge", "input": ["StatefulPartitionedCall/sequential/bidirectional_1/forward_gru/PartitionedCall/while/enter/_189", "StatefulPartitionedCall/sequential/bidirectional_1/forward_gru/PartitionedCall/while/next_iteration/_236"], "attr": {"T": {"type": "DT_FLOAT"}, "N": {"i": "2"}}}, {"name": "StatefulPartitionedCall/sequential/bidirectional_1/forward_gru/PartitionedCall/while/merge/_201", "op": "Merge", "input": ["StatefulPartitionedCall/sequential/bidirectional_1/forward_gru/PartitionedCall/while/enter/_190", "StatefulPartitionedCall/sequential/bidirectional_1/forward_gru/PartitionedCall/while/next_iteration/_237"], "attr": {"N": {"i": "2"}, "T": {"type": "DT_FLOAT"}}}, {"name": "StatefulPartitionedCall/sequential/bidirectional_1/forward_gru/PartitionedCall/while/merge/_202", "op": "Merge", "input": ["StatefulPartitionedCall/sequential/bidirectional_1/forward_gru/PartitionedCall/while/enter/_191", "StatefulPartitionedCall/sequential/bidirectional_1/forward_gru/PartitionedCall/while/next_iteration/_238"], "attr": {"T": {"type": "DT_FLOAT"}, "N": {"i": "2"}}}, {"name": "StatefulPartitionedCall/sequential/bidirectional_1/forward_gru/PartitionedCall/while/merge/_203", "op": "Merge", "input": ["StatefulPartitionedCall/sequential/bidirectional_1/forward_gru/PartitionedCall/while/enter/_192", "StatefulPartitionedCall/sequential/bidirectional_1/forward_gru/PartitionedCall/while/next_iteration/_239"], "attr": {"T": {"type": "DT_FLOAT"}, "N": {"i": "2"}}}, {"name": "StatefulPartitionedCall/sequential/bidirectional_1/forward_gru/PartitionedCall/while/merge/_195", "op": "Merge", "input": ["StatefulPartitionedCall/sequential/bidirectional_1/forward_gru/PartitionedCall/while/enter/_184", "StatefulPartitionedCall/sequential/bidirectional_1/forward_gru/PartitionedCall/while/next_iteration/_231"], "attr": {"N": {"i": "2"}, "T": {"type": "DT_INT32"}}}, {"name": "StatefulPartitionedCall/sequential/bidirectional_1/forward_gru/PartitionedCall/while/merge/_193", "op": "Merge", "input": ["StatefulPartitionedCall/sequential/bidirectional_1/forward_gru/PartitionedCall/while/enter/_182", "StatefulPartitionedCall/sequential/bidirectional_1/forward_gru/PartitionedCall/while/next_iteration/_229"], "attr": {"T": {"type": "DT_INT32"}, "_has_manual_control_dependencies": {"b": true}, "N": {"i": "2"}}}, {"name": "StatefulPartitionedCall/sequential/bidirectional_1/backward_gru/PartitionedCall/while/enter/_245", "op": "Enter", "input": ["StatefulPartitionedCall/sequential/bidirectional_1/backward_gru/PartitionedCall/TensorArrayV2_1"], "attr": {"parallel_iterations": {"i": "32"}, "is_constant": {"b": false}, "T": {"type": "DT_VARIANT"}, "frame_name": {"s": "U3RhdGVmdWxQYXJ0aXRpb25lZENhbGwvc2VxdWVudGlhbC9iaWRpcmVjdGlvbmFsXzEvYmFja3dhcmRfZ3J1L1BhcnRpdGlvbmVkQ2FsbC93aGlsZQ=="}}}, {"name": "StatefulPartitionedCall/sequential/bidirectional_1/backward_gru/PartitionedCall/while/merge/_260", "op": "Merge", "input": ["StatefulPartitionedCall/sequential/bidirectional_1/backward_gru/PartitionedCall/while/enter/_249", "StatefulPartitionedCall/sequential/bidirectional_1/backward_gru/PartitionedCall/while/next_iteration/_296"], "attr": {"N": {"i": "2"}, "T": {"type": "DT_FLOAT"}}}, {"name": "StatefulPartitionedCall/sequential/bidirectional_1/backward_gru/PartitionedCall/while/merge/_261", "op": "Merge", "input": ["StatefulPartitionedCall/sequential/bidirectional_1/backward_gru/PartitionedCall/while/enter/_250", "StatefulPartitionedCall/sequential/bidirectional_1/backward_gru/PartitionedCall/while/next_iteration/_297"], "attr": {"N": {"i": "2"}, "T": {"type": "DT_FLOAT"}}}, {"name": "StatefulPartitionedCall/sequential/bidirectional_1/backward_gru/PartitionedCall/while/merge/_262", "op": "Merge", "input": ["StatefulPartitionedCall/sequential/bidirectional_1/backward_gru/PartitionedCall/while/enter/_251", "StatefulPartitionedCall/sequential/bidirectional_1/backward_gru/PartitionedCall/while/next_iteration/_298"], "attr": {"N": {"i": "2"}, "T": {"type": "DT_FLOAT"}}}, {"name": "StatefulPartitionedCall/sequential/bidirectional_1/backward_gru/PartitionedCall/while/merge/_263", "op": "Merge", "input": ["StatefulPartitionedCall/sequential/bidirectional_1/backward_gru/PartitionedCall/while/enter/_252", "StatefulPartitionedCall/sequential/bidirectional_1/backward_gru/PartitionedCall/while/next_iteration/_299"], "attr": {"T": {"type": "DT_FLOAT"}, "N": {"i": "2"}}}, {"name": "StatefulPartitionedCall/sequential/bidirectional_1/backward_gru/PartitionedCall/while/merge/_255", "op": "Merge", "input": ["StatefulPartitionedCall/sequential/bidirectional_1/backward_gru/PartitionedCall/while/enter/_244", "StatefulPartitionedCall/sequential/bidirectional_1/backward_gru/PartitionedCall/while/next_iteration/_291"], "attr": {"N": {"i": "2"}, "T": {"type": "DT_INT32"}}}, {"name": "StatefulPartitionedCall/sequential/bidirectional/forward_lstm/PartitionedCall/while/merge/_81", "op": "Merge", "input": ["StatefulPartitionedCall/sequential/bidirectional/forward_lstm/PartitionedCall/while/enter/_70", "StatefulPartitionedCall/sequential/bidirectional/forward_lstm/PartitionedCall/while/next_iteration/_117"], "attr": {"T": {"type": "DT_FLOAT"}, "N": {"i": "2"}}}, {"name": "StatefulPartitionedCall/sequential/bidirectional/forward_lstm/PartitionedCall/while/merge/_82", "op": "Merge", "input": ["StatefulPartitionedCall/sequential/bidirectional/forward_lstm/PartitionedCall/while/enter/_71", "StatefulPartitionedCall/sequential/bidirectional/forward_lstm/PartitionedCall/while/next_iteration/_118"], "attr": {"N": {"i": "2"}, "T": {"type": "DT_FLOAT"}}}, {"name": "StatefulPartitionedCall/sequential/bidirectional/forward_lstm/PartitionedCall/while/merge/_83", "op": "Merge", "input": ["StatefulPartitionedCall/sequential/bidirectional/forward_lstm/PartitionedCall/while/enter/_72", "StatefulPartitionedCall/sequential/bidirectional/forward_lstm/PartitionedCall/while/next_iteration/_119"], "attr": {"N": {"i": "2"}, "T": {"type": "DT_FLOAT"}}}, {"name": "StatefulPartitionedCall/sequential/bidirectional/forward_lstm/PartitionedCall/while/merge/_75", "op": "Merge", "input": ["StatefulPartitionedCall/sequential/bidirectional/forward_lstm/PartitionedCall/while/enter/_64", "StatefulPartitionedCall/sequential/bidirectional/forward_lstm/PartitionedCall/while/next_iteration/_111"], "attr": {"N": {"i": "2"}, "T": {"type": "DT_INT32"}}}, {"name": "StatefulPartitionedCall/sequential/bidirectional/forward_lstm/PartitionedCall/while/merge/_73", "op": "Merge", "input": ["StatefulPartitionedCall/sequential/bidirectional/forward_lstm/PartitionedCall/while/enter/_62", "StatefulPartitionedCall/sequential/bidirectional/forward_lstm/PartitionedCall/while/next_iteration/_109"], "attr": {"N": {"i": "2"}, "_has_manual_control_dependencies": {"b": true}, "T": {"type": "DT_INT32"}}}, {"name": "StatefulPartitionedCall/sequential/bidirectional/backward_lstm/PartitionedCall/while/merge/_141", "op": "Merge", "input": ["StatefulPartitionedCall/sequential/bidirectional/backward_lstm/PartitionedCall/while/enter/_130", "StatefulPartitionedCall/sequential/bidirectional/backward_lstm/PartitionedCall/while/next_iteration/_177"], "attr": {"T": {"type": "DT_FLOAT"}, "N": {"i": "2"}}}, {"name": "StatefulPartitionedCall/sequential/bidirectional/backward_lstm/PartitionedCall/while/merge/_142", "op": "Merge", "input": ["StatefulPartitionedCall/sequential/bidirectional/backward_lstm/PartitionedCall/while/enter/_131", "StatefulPartitionedCall/sequential/bidirectional/backward_lstm/PartitionedCall/while/next_iteration/_178"], "attr": {"N": {"i": "2"}, "T": {"type": "DT_FLOAT"}}}, {"name": "StatefulPartitionedCall/sequential/bidirectional/backward_lstm/PartitionedCall/while/merge/_143", "op": "Merge", "input": ["StatefulPartitionedCall/sequential/bidirectional/backward_lstm/PartitionedCall/while/enter/_132", "StatefulPartitionedCall/sequential/bidirectional/backward_lstm/PartitionedCall/while/next_iteration/_179"], "attr": {"T": {"type": "DT_FLOAT"}, "N": {"i": "2"}}}, {"name": "StatefulPartitionedCall/sequential/bidirectional/backward_lstm/PartitionedCall/while/merge/_135", "op": "Merge", "input": ["StatefulPartitionedCall/sequential/bidirectional/backward_lstm/PartitionedCall/while/enter/_124", "StatefulPartitionedCall/sequential/bidirectional/backward_lstm/PartitionedCall/while/next_iteration/_171"], "attr": {"N": {"i": "2"}, "T": {"type": "DT_INT32"}}}, {"name": "StatefulPartitionedCall/sequential/bidirectional/backward_lstm/PartitionedCall/while/merge/_133", "op": "Merge", "input": ["StatefulPartitionedCall/sequential/bidirectional/backward_lstm/PartitionedCall/while/enter/_122", "StatefulPartitionedCall/sequential/bidirectional/backward_lstm/PartitionedCall/while/next_iteration/_169"], "attr": {"_has_manual_control_dependencies": {"b": true}, "T": {"type": "DT_INT32"}, "N": {"i": "2"}}}, {"name": "StatefulPartitionedCall/sequential/bidirectional_1/backward_gru/PartitionedCall/while/merge/_253", "op": "Merge", "input": ["StatefulPartitionedCall/sequential/bidirectional_1/backward_gru/PartitionedCall/while/enter/_242", "StatefulPartitionedCall/sequential/bidirectional_1/backward_gru/PartitionedCall/while/next_iteration/_289"], "attr": {"N": {"i": "2"}, "_has_manual_control_dependencies": {"b": true}, "T": {"type": "DT_INT32"}}}, {"name": "StatefulPartitionedCall/sequential/embedding/embedding_lookup", "op": "GatherV2", "input": ["unknown", "StatefulPartitionedCall/sequential/embedding/Cast", "StatefulPartitionedCall/sequential/embedding/embedding_lookup/axis"], "attr": {"_has_manual_control_dependencies": {"b": true}, "batch_dims": {"i": "0"}, "Taxis": {"type": "DT_INT32"}, "Tindices": {"type": "DT_INT32"}, "Tparams": {"type": "DT_FLOAT"}}}, {"name": "StatefulPartitionedCall/sequential/bidirectional_1/forward_gru/PartitionedCall/while/merge/_196", "op": "Merge", "input": ["StatefulPartitionedCall/sequential/bidirectional_1/forward_gru/PartitionedCall/while/enter/_185", "StatefulPartitionedCall/sequential/bidirectional_1/forward_gru/PartitionedCall/while/next_iteration/_232"], "attr": {"N": {"i": "2"}, "T": {"type": "DT_VARIANT"}}}, {"name": "StatefulPartitionedCall/sequential/bidirectional_1/backward_gru/PartitionedCall/while/merge/_256", "op": "Merge", "input": ["StatefulPartitionedCall/sequential/bidirectional_1/backward_gru/PartitionedCall/while/enter/_245", "StatefulPartitionedCall/sequential/bidirectional_1/backward_gru/PartitionedCall/while/next_iteration/_292"], "attr": {"N": {"i": "2"}, "T": {"type": "DT_VARIANT"}}}, {"name": "StatefulPartitionedCall/sequential/bidirectional/forward_lstm/Shape", "op": "Shape", "input": ["StatefulPartitionedCall/sequential/embedding/embedding_lookup"], "attr": {"T": {"type": "DT_FLOAT"}, "out_type": {"type": "DT_INT32"}}, "experimentalType": {"typeId": "TFT_PRODUCT", "args": [{"typeId": "TFT_SHAPE_TENSOR", "args": [{"typeId": "TFT_INT32"}]}]}}, {"name": "StatefulPartitionedCall/sequential/bidirectional/forward_lstm/PartitionedCall/transpose", "op": "Transpose", "input": ["StatefulPartitionedCall/sequential/embedding/embedding_lookup", "StatefulPartitionedCall/sequential/bidirectional/forward_lstm/PartitionedCall/transpose/perm"], "attr": {"T": {"type": "DT_FLOAT"}, "Tperm": {"type": "DT_INT32"}}}, {"name": "StatefulPartitionedCall/sequential/bidirectional/backward_lstm/Shape", "op": "Shape", "input": ["StatefulPartitionedCall/sequential/embedding/embedding_lookup"], "attr": {"T": {"type": "DT_FLOAT"}, "out_type": {"type": "DT_INT32"}}, "experimentalType": {"typeId": "TFT_PRODUCT", "args": [{"typeId": "TFT_SHAPE_TENSOR", "args": [{"typeId": "TFT_INT32"}]}]}}, {"name": "StatefulPartitionedCall/sequential/bidirectional/backward_lstm/PartitionedCall/transpose", "op": "Transpose", "input": ["StatefulPartitionedCall/sequential/embedding/embedding_lookup", "StatefulPartitionedCall/sequential/bidirectional/backward_lstm/PartitionedCall/transpose/perm"], "attr": {"T": {"type": "DT_FLOAT"}, "Tperm": {"type": "DT_INT32"}}}, {"name": "StatefulPartitionedCall/sequential/bidirectional/forward_lstm/strided_slice", "op": "StridedSlice", "input": ["StatefulPartitionedCall/sequential/bidirectional/forward_lstm/Shape", "StatefulPartitionedCall/sequential/bidirectional/forward_lstm/strided_slice/stack", "StatefulPartitionedCall/sequential/bidirectional/forward_lstm/strided_slice/stack_1", "StatefulPartitionedCall/sequential/bidirectional/forward_lstm/strided_slice/stack_2"], "attr": {"T": {"type": "DT_INT32"}, "Index": {"type": "DT_INT32"}, "begin_mask": {"i": "0"}, "end_mask": {"i": "0"}, "ellipsis_mask": {"i": "0"}, "shrink_axis_mask": {"i": "1"}, "new_axis_mask": {"i": "0"}}}, {"name": "StatefulPartitionedCall/sequential/bidirectional/forward_lstm/PartitionedCall/TensorArrayUnstack/TensorListFromTensor", "op": "TensorListFromTensor", "input": ["StatefulPartitionedCall/sequential/bidirectional/forward_lstm/PartitionedCall/transpose", "StatefulPartitionedCall/sequential/bidirectional/forward_lstm/PartitionedCall/TensorArrayUnstack/TensorListFromTensor/element_shape"], "attr": {"element_dtype": {"type": "DT_FLOAT"}, "shape_type": {"type": "DT_INT32"}}, "experimentalType": {"typeId": "TFT_PRODUCT", "args": [{"typeId": "TFT_ARRAY", "args": [{"typeId": "TFT_TENSOR", "args": [{"typeId": "TFT_FLOAT"}]}]}]}}, {"name": "StatefulPartitionedCall/sequential/bidirectional/forward_lstm/PartitionedCall/Shape", "op": "Shape", "input": ["StatefulPartitionedCall/sequential/bidirectional/forward_lstm/PartitionedCall/transpose"], "attr": {"out_type": {"type": "DT_INT32"}, "T": {"type": "DT_FLOAT"}}, "experimentalType": {"typeId": "TFT_PRODUCT", "args": [{"typeId": "TFT_SHAPE_TENSOR", "args": [{"typeId": "TFT_INT32"}]}]}}, {"name": "StatefulPartitionedCall/sequential/bidirectional/backward_lstm/strided_slice", "op": "StridedSlice", "input": ["StatefulPartitionedCall/sequential/bidirectional/backward_lstm/Shape", "StatefulPartitionedCall/sequential/bidirectional/backward_lstm/strided_slice/stack", "StatefulPartitionedCall/sequential/bidirectional/backward_lstm/strided_slice/stack_1", "StatefulPartitionedCall/sequential/bidirectional/backward_lstm/strided_slice/stack_2"], "attr": {"begin_mask": {"i": "0"}, "shrink_axis_mask": {"i": "1"}, "ellipsis_mask": {"i": "0"}, "new_axis_mask": {"i": "0"}, "T": {"type": "DT_INT32"}, "Index": {"type": "DT_INT32"}, "end_mask": {"i": "0"}}}, {"name": "StatefulPartitionedCall/sequential/bidirectional/backward_lstm/PartitionedCall/ReverseV2", "op": "ReverseV2", "input": ["StatefulPartitionedCall/sequential/bidirectional/backward_lstm/PartitionedCall/transpose", "StatefulPartitionedCall/sequential/bidirectional/backward_lstm/PartitionedCall/ReverseV2/axis"], "attr": {"T": {"type": "DT_FLOAT"}, "Tidx": {"type": "DT_INT32"}}}, {"name": "StatefulPartitionedCall/sequential/bidirectional/backward_lstm/PartitionedCall/Shape", "op": "Shape", "input": ["StatefulPartitionedCall/sequential/bidirectional/backward_lstm/PartitionedCall/transpose"], "attr": {"out_type": {"type": "DT_INT32"}, "T": {"type": "DT_FLOAT"}}, "experimentalType": {"typeId": "TFT_PRODUCT", "args": [{"typeId": "TFT_SHAPE_TENSOR", "args": [{"typeId": "TFT_INT32"}]}]}}, {"name": "StatefulPartitionedCall/sequential/bidirectional/forward_lstm/zeros_1/packed", "op": "Pack", "input": ["StatefulPartitionedCall/sequential/bidirectional/forward_lstm/strided_slice", "StatefulPartitionedCall/sequential/bidirectional/forward_lstm/zeros_1/packed/1"], "attr": {"N": {"i": "2"}, "T": {"type": "DT_INT32"}, "axis": {"i": "0"}}}, {"name": "StatefulPartitionedCall/sequential/bidirectional/forward_lstm/zeros/packed", "op": "Pack", "input": ["StatefulPartitionedCall/sequential/bidirectional/forward_lstm/strided_slice", "StatefulPartitionedCall/sequential/bidirectional/forward_lstm/zeros/packed/1"], "attr": {"N": {"i": "2"}, "axis": {"i": "0"}, "T": {"type": "DT_INT32"}}}, {"name": "StatefulPartitionedCall/sequential/bidirectional/forward_lstm/PartitionedCall/while/enter/_69", "op": "Enter", "input": ["StatefulPartitionedCall/sequential/bidirectional/forward_lstm/PartitionedCall/TensorArrayUnstack/TensorListFromTensor"], "attr": {"T": {"type": "DT_VARIANT"}, "frame_name": {"s": "U3RhdGVmdWxQYXJ0aXRpb25lZENhbGwvc2VxdWVudGlhbC9iaWRpcmVjdGlvbmFsL2ZvcndhcmRfbHN0bS9QYXJ0aXRpb25lZENhbGwvd2hpbGU="}, "is_constant": {"b": false}, "parallel_iterations": {"i": "32"}}}, {"name": "StatefulPartitionedCall/sequential/bidirectional/forward_lstm/PartitionedCall/strided_slice", "op": "StridedSlice", "input": ["StatefulPartitionedCall/sequential/bidirectional/forward_lstm/PartitionedCall/Shape", "StatefulPartitionedCall/sequential/bidirectional/forward_lstm/PartitionedCall/strided_slice/stack", "StatefulPartitionedCall/sequential/bidirectional/forward_lstm/PartitionedCall/strided_slice/stack_1", "StatefulPartitionedCall/sequential/bidirectional/forward_lstm/PartitionedCall/strided_slice/stack_2"], "attr": {"shrink_axis_mask": {"i": "1"}, "T": {"type": "DT_INT32"}, "Index": {"type": "DT_INT32"}, "ellipsis_mask": {"i": "0"}, "end_mask": {"i": "0"}, "new_axis_mask": {"i": "0"}, "begin_mask": {"i": "0"}}}, {"name": "StatefulPartitionedCall/sequential/bidirectional/backward_lstm/zeros_1/packed", "op": "Pack", "input": ["StatefulPartitionedCall/sequential/bidirectional/backward_lstm/strided_slice", "StatefulPartitionedCall/sequential/bidirectional/backward_lstm/zeros_1/packed/1"], "attr": {"N": {"i": "2"}, "T": {"type": "DT_INT32"}, "axis": {"i": "0"}}}, {"name": "StatefulPartitionedCall/sequential/bidirectional/backward_lstm/zeros/packed", "op": "Pack", "input": ["StatefulPartitionedCall/sequential/bidirectional/backward_lstm/strided_slice", "StatefulPartitionedCall/sequential/bidirectional/backward_lstm/zeros/packed/1"], "attr": {"N": {"i": "2"}, "T": {"type": "DT_INT32"}, "axis": {"i": "0"}}}, {"name": "StatefulPartitionedCall/sequential/bidirectional/backward_lstm/PartitionedCall/TensorArrayUnstack/TensorListFromTensor", "op": "TensorListFromTensor", "input": ["StatefulPartitionedCall/sequential/bidirectional/backward_lstm/PartitionedCall/ReverseV2", "StatefulPartitionedCall/sequential/bidirectional/backward_lstm/PartitionedCall/TensorArrayUnstack/TensorListFromTensor/element_shape"], "attr": {"shape_type": {"type": "DT_INT32"}, "element_dtype": {"type": "DT_FLOAT"}}, "experimentalType": {"typeId": "TFT_PRODUCT", "args": [{"typeId": "TFT_ARRAY", "args": [{"typeId": "TFT_TENSOR", "args": [{"typeId": "TFT_FLOAT"}]}]}]}}, {"name": "StatefulPartitionedCall/sequential/bidirectional/backward_lstm/PartitionedCall/strided_slice", "op": "StridedSlice", "input": ["StatefulPartitionedCall/sequential/bidirectional/backward_lstm/PartitionedCall/Shape", "StatefulPartitionedCall/sequential/bidirectional/backward_lstm/PartitionedCall/strided_slice/stack", "StatefulPartitionedCall/sequential/bidirectional/backward_lstm/PartitionedCall/strided_slice/stack_1", "StatefulPartitionedCall/sequential/bidirectional/backward_lstm/PartitionedCall/strided_slice/stack_2"], "attr": {"T": {"type": "DT_INT32"}, "shrink_axis_mask": {"i": "1"}, "Index": {"type": "DT_INT32"}, "begin_mask": {"i": "0"}, "end_mask": {"i": "0"}, "ellipsis_mask": {"i": "0"}, "new_axis_mask": {"i": "0"}}}, {"name": "StatefulPartitionedCall/sequential/bidirectional/forward_lstm/zeros_1", "op": "Fill", "input": ["StatefulPartitionedCall/sequential/bidirectional/forward_lstm/zeros_1/packed", "StatefulPartitionedCall/sequential/bidirectional/forward_lstm/zeros_1/Const"], "attr": {"index_type": {"type": "DT_INT32"}, "T": {"type": "DT_FLOAT"}}}, {"name": "StatefulPartitionedCall/sequential/bidirectional/forward_lstm/zeros", "op": "Fill", "input": ["StatefulPartitionedCall/sequential/bidirectional/forward_lstm/zeros/packed", "StatefulPartitionedCall/sequential/bidirectional/forward_lstm/zeros/Const"], "attr": {"T": {"type": "DT_FLOAT"}, "index_type": {"type": "DT_INT32"}}}, {"name": "StatefulPartitionedCall/sequential/bidirectional/forward_lstm/PartitionedCall/while/merge/_80", "op": "Merge", "input": ["StatefulPartitionedCall/sequential/bidirectional/forward_lstm/PartitionedCall/while/enter/_69", "StatefulPartitionedCall/sequential/bidirectional/forward_lstm/PartitionedCall/while/next_iteration/_116"], "attr": {"T": {"type": "DT_VARIANT"}, "N": {"i": "2"}}}, {"name": "StatefulPartitionedCall/sequential/bidirectional/forward_lstm/PartitionedCall/TensorArrayV2_1", "op": "TensorListReserve", "input": ["StatefulPartitionedCall/sequential/bidirectional/forward_lstm/PartitionedCall/TensorArrayV2_1/element_shape", "StatefulPartitionedCall/sequential/bidirectional/forward_lstm/PartitionedCall/strided_slice"], "attr": {"shape_type": {"type": "DT_INT32"}, "element_dtype": {"type": "DT_FLOAT"}}, "experimentalType": {"typeId": "TFT_PRODUCT", "args": [{"typeId": "TFT_ARRAY", "args": [{"typeId": "TFT_TENSOR", "args": [{"typeId": "TFT_FLOAT"}]}]}]}}, {"name": "StatefulPartitionedCall/sequential/bidirectional/forward_lstm/PartitionedCall/while/enter/_68", "op": "Enter", "input": ["StatefulPartitionedCall/sequential/bidirectional/forward_lstm/PartitionedCall/strided_slice"], "attr": {"is_constant": {"b": false}, "T": {"type": "DT_INT32"}, "parallel_iterations": {"i": "32"}, "frame_name": {"s": "U3RhdGVmdWxQYXJ0aXRpb25lZENhbGwvc2VxdWVudGlhbC9iaWRpcmVjdGlvbmFsL2ZvcndhcmRfbHN0bS9QYXJ0aXRpb25lZENhbGwvd2hpbGU="}}}, {"name": "StatefulPartitionedCall/sequential/bidirectional/backward_lstm/zeros_1", "op": "Fill", "input": ["StatefulPartitionedCall/sequential/bidirectional/backward_lstm/zeros_1/packed", "StatefulPartitionedCall/sequential/bidirectional/backward_lstm/zeros_1/Const"], "attr": {"index_type": {"type": "DT_INT32"}, "T": {"type": "DT_FLOAT"}}}, {"name": "StatefulPartitionedCall/sequential/bidirectional/backward_lstm/zeros", "op": "Fill", "input": ["StatefulPartitionedCall/sequential/bidirectional/backward_lstm/zeros/packed", "StatefulPartitionedCall/sequential/bidirectional/backward_lstm/zeros/Const"], "attr": {"index_type": {"type": "DT_INT32"}, "T": {"type": "DT_FLOAT"}}}, {"name": "StatefulPartitionedCall/sequential/bidirectional/backward_lstm/PartitionedCall/while/enter/_129", "op": "Enter", "input": ["StatefulPartitionedCall/sequential/bidirectional/backward_lstm/PartitionedCall/TensorArrayUnstack/TensorListFromTensor"], "attr": {"frame_name": {"s": "U3RhdGVmdWxQYXJ0aXRpb25lZENhbGwvc2VxdWVudGlhbC9iaWRpcmVjdGlvbmFsL2JhY2t3YXJkX2xzdG0vUGFydGl0aW9uZWRDYWxsL3doaWxl"}, "T": {"type": "DT_VARIANT"}, "is_constant": {"b": false}, "parallel_iterations": {"i": "32"}}}, {"name": "StatefulPartitionedCall/sequential/bidirectional/backward_lstm/PartitionedCall/TensorArrayV2_1", "op": "TensorListReserve", "input": ["StatefulPartitionedCall/sequential/bidirectional/backward_lstm/PartitionedCall/TensorArrayV2_1/element_shape", "StatefulPartitionedCall/sequential/bidirectional/backward_lstm/PartitionedCall/strided_slice"], "attr": {"shape_type": {"type": "DT_INT32"}, "element_dtype": {"type": "DT_FLOAT"}}, "experimentalType": {"typeId": "TFT_PRODUCT", "args": [{"typeId": "TFT_ARRAY", "args": [{"typeId": "TFT_TENSOR", "args": [{"typeId": "TFT_FLOAT"}]}]}]}}, {"name": "StatefulPartitionedCall/sequential/bidirectional/backward_lstm/PartitionedCall/while/enter/_128", "op": "Enter", "input": ["StatefulPartitionedCall/sequential/bidirectional/backward_lstm/PartitionedCall/strided_slice"], "attr": {"is_constant": {"b": false}, "frame_name": {"s": "U3RhdGVmdWxQYXJ0aXRpb25lZENhbGwvc2VxdWVudGlhbC9iaWRpcmVjdGlvbmFsL2JhY2t3YXJkX2xzdG0vUGFydGl0aW9uZWRDYWxsL3doaWxl"}, "T": {"type": "DT_INT32"}, "parallel_iterations": {"i": "32"}}}, {"name": "StatefulPartitionedCall/sequential/bidirectional/forward_lstm/PartitionedCall/while/enter/_67", "op": "Enter", "input": ["StatefulPartitionedCall/sequential/bidirectional/forward_lstm/zeros_1"], "attr": {"parallel_iterations": {"i": "32"}, "is_constant": {"b": false}, "T": {"type": "DT_FLOAT"}, "frame_name": {"s": "U3RhdGVmdWxQYXJ0aXRpb25lZENhbGwvc2VxdWVudGlhbC9iaWRpcmVjdGlvbmFsL2ZvcndhcmRfbHN0bS9QYXJ0aXRpb25lZENhbGwvd2hpbGU="}}}, {"name": "StatefulPartitionedCall/sequential/bidirectional/forward_lstm/PartitionedCall/while/enter/_66", "op": "Enter", "input": ["StatefulPartitionedCall/sequential/bidirectional/forward_lstm/zeros"], "attr": {"frame_name": {"s": "U3RhdGVmdWxQYXJ0aXRpb25lZENhbGwvc2VxdWVudGlhbC9iaWRpcmVjdGlvbmFsL2ZvcndhcmRfbHN0bS9QYXJ0aXRpb25lZENhbGwvd2hpbGU="}, "is_constant": {"b": false}, "parallel_iterations": {"i": "32"}, "T": {"type": "DT_FLOAT"}}}, {"name": "StatefulPartitionedCall/sequential/bidirectional/forward_lstm/PartitionedCall/while/enter/_65", "op": "Enter", "input": ["StatefulPartitionedCall/sequential/bidirectional/forward_lstm/PartitionedCall/TensorArrayV2_1"], "attr": {"T": {"type": "DT_VARIANT"}, "is_constant": {"b": false}, "frame_name": {"s": "U3RhdGVmdWxQYXJ0aXRpb25lZENhbGwvc2VxdWVudGlhbC9iaWRpcmVjdGlvbmFsL2ZvcndhcmRfbHN0bS9QYXJ0aXRpb25lZENhbGwvd2hpbGU="}, "parallel_iterations": {"i": "32"}}}, {"name": "StatefulPartitionedCall/sequential/bidirectional/forward_lstm/PartitionedCall/while/merge/_79", "op": "Merge", "input": ["StatefulPartitionedCall/sequential/bidirectional/forward_lstm/PartitionedCall/while/enter/_68", "StatefulPartitionedCall/sequential/bidirectional/forward_lstm/PartitionedCall/while/next_iteration/_115"], "attr": {"T": {"type": "DT_INT32"}, "N": {"i": "2"}}}, {"name": "StatefulPartitionedCall/sequential/bidirectional/backward_lstm/PartitionedCall/while/enter/_127", "op": "Enter", "input": ["StatefulPartitionedCall/sequential/bidirectional/backward_lstm/zeros_1"], "attr": {"parallel_iterations": {"i": "32"}, "T": {"type": "DT_FLOAT"}, "is_constant": {"b": false}, "frame_name": {"s": "U3RhdGVmdWxQYXJ0aXRpb25lZENhbGwvc2VxdWVudGlhbC9iaWRpcmVjdGlvbmFsL2JhY2t3YXJkX2xzdG0vUGFydGl0aW9uZWRDYWxsL3doaWxl"}}}, {"name": "StatefulPartitionedCall/sequential/bidirectional/backward_lstm/PartitionedCall/while/enter/_126", "op": "Enter", "input": ["StatefulPartitionedCall/sequential/bidirectional/backward_lstm/zeros"], "attr": {"T": {"type": "DT_FLOAT"}, "parallel_iterations": {"i": "32"}, "frame_name": {"s": "U3RhdGVmdWxQYXJ0aXRpb25lZENhbGwvc2VxdWVudGlhbC9iaWRpcmVjdGlvbmFsL2JhY2t3YXJkX2xzdG0vUGFydGl0aW9uZWRDYWxsL3doaWxl"}, "is_constant": {"b": false}}}, {"name": "StatefulPartitionedCall/sequential/bidirectional/backward_lstm/PartitionedCall/while/merge/_140", "op": "Merge", "input": ["StatefulPartitionedCall/sequential/bidirectional/backward_lstm/PartitionedCall/while/enter/_129", "StatefulPartitionedCall/sequential/bidirectional/backward_lstm/PartitionedCall/while/next_iteration/_176"], "attr": {"T": {"type": "DT_VARIANT"}, "N": {"i": "2"}}}, {"name": "StatefulPartitionedCall/sequential/bidirectional/backward_lstm/PartitionedCall/while/enter/_125", "op": "Enter", "input": ["StatefulPartitionedCall/sequential/bidirectional/backward_lstm/PartitionedCall/TensorArrayV2_1"], "attr": {"is_constant": {"b": false}, "T": {"type": "DT_VARIANT"}, "frame_name": {"s": "U3RhdGVmdWxQYXJ0aXRpb25lZENhbGwvc2VxdWVudGlhbC9iaWRpcmVjdGlvbmFsL2JhY2t3YXJkX2xzdG0vUGFydGl0aW9uZWRDYWxsL3doaWxl"}, "parallel_iterations": {"i": "32"}}}, {"name": "StatefulPartitionedCall/sequential/bidirectional/backward_lstm/PartitionedCall/while/merge/_139", "op": "Merge", "input": ["StatefulPartitionedCall/sequential/bidirectional/backward_lstm/PartitionedCall/while/enter/_128", "StatefulPartitionedCall/sequential/bidirectional/backward_lstm/PartitionedCall/while/next_iteration/_175"], "attr": {"N": {"i": "2"}, "T": {"type": "DT_INT32"}}}, {"name": "StatefulPartitionedCall/sequential/bidirectional/forward_lstm/PartitionedCall/while/merge/_78", "op": "Merge", "input": ["StatefulPartitionedCall/sequential/bidirectional/forward_lstm/PartitionedCall/while/enter/_67", "StatefulPartitionedCall/sequential/bidirectional/forward_lstm/PartitionedCall/while/next_iteration/_114"], "attr": {"T": {"type": "DT_FLOAT"}, "N": {"i": "2"}}}, {"name": "StatefulPartitionedCall/sequential/bidirectional/forward_lstm/PartitionedCall/while/merge/_77", "op": "Merge", "input": ["StatefulPartitionedCall/sequential/bidirectional/forward_lstm/PartitionedCall/while/enter/_66", "StatefulPartitionedCall/sequential/bidirectional/forward_lstm/PartitionedCall/while/next_iteration/_113"], "attr": {"N": {"i": "2"}, "T": {"type": "DT_FLOAT"}}}, {"name": "StatefulPartitionedCall/sequential/bidirectional/forward_lstm/PartitionedCall/while/merge/_76", "op": "Merge", "input": ["StatefulPartitionedCall/sequential/bidirectional/forward_lstm/PartitionedCall/while/enter/_65", "StatefulPartitionedCall/sequential/bidirectional/forward_lstm/PartitionedCall/while/next_iteration/_112"], "attr": {"T": {"type": "DT_VARIANT"}, "N": {"i": "2"}}}, {"name": "StatefulPartitionedCall/sequential/bidirectional/forward_lstm/PartitionedCall/while/cond/_60/while/Less", "op": "Less", "input": ["StatefulPartitionedCall/sequential/bidirectional/forward_lstm/PartitionedCall/while/merge/_75", "StatefulPartitionedCall/sequential/bidirectional/forward_lstm/PartitionedCall/while/merge/_79", "^StatefulPartitionedCall/sequential/bidirectional/forward_lstm/PartitionedCall/while/merge/_73"], "attr": {"T": {"type": "DT_INT32"}}}, {"name": "StatefulPartitionedCall/sequential/bidirectional/backward_lstm/PartitionedCall/while/merge/_138", "op": "Merge", "input": ["StatefulPartitionedCall/sequential/bidirectional/backward_lstm/PartitionedCall/while/enter/_127", "StatefulPartitionedCall/sequential/bidirectional/backward_lstm/PartitionedCall/while/next_iteration/_174"], "attr": {"T": {"type": "DT_FLOAT"}, "N": {"i": "2"}}}, {"name": "StatefulPartitionedCall/sequential/bidirectional/backward_lstm/PartitionedCall/while/merge/_137", "op": "Merge", "input": ["StatefulPartitionedCall/sequential/bidirectional/backward_lstm/PartitionedCall/while/enter/_126", "StatefulPartitionedCall/sequential/bidirectional/backward_lstm/PartitionedCall/while/next_iteration/_173"], "attr": {"T": {"type": "DT_FLOAT"}, "N": {"i": "2"}}}, {"name": "StatefulPartitionedCall/sequential/bidirectional/backward_lstm/PartitionedCall/while/merge/_136", "op": "Merge", "input": ["StatefulPartitionedCall/sequential/bidirectional/backward_lstm/PartitionedCall/while/enter/_125", "StatefulPartitionedCall/sequential/bidirectional/backward_lstm/PartitionedCall/while/next_iteration/_172"], "attr": {"T": {"type": "DT_VARIANT"}, "N": {"i": "2"}}}, {"name": "StatefulPartitionedCall/sequential/bidirectional/backward_lstm/PartitionedCall/while/cond/_120/while/Less", "op": "Less", "input": ["StatefulPartitionedCall/sequential/bidirectional/backward_lstm/PartitionedCall/while/merge/_135", "StatefulPartitionedCall/sequential/bidirectional/backward_lstm/PartitionedCall/while/merge/_139", "^StatefulPartitionedCall/sequential/bidirectional/backward_lstm/PartitionedCall/while/merge/_133"], "attr": {"T": {"type": "DT_INT32"}}}, {"name": "StatefulPartitionedCall/sequential/bidirectional/forward_lstm/PartitionedCall/while/LoopCond/_84", "op": "LoopCond", "input": ["StatefulPartitionedCall/sequential/bidirectional/forward_lstm/PartitionedCall/while/cond/_60/while/Less"]}, {"name": "StatefulPartitionedCall/sequential/bidirectional/backward_lstm/PartitionedCall/while/LoopCond/_144", "op": "LoopCond", "input": ["StatefulPartitionedCall/sequential/bidirectional/backward_lstm/PartitionedCall/while/cond/_120/while/Less"]}, {"name": "StatefulPartitionedCall/sequential/bidirectional/forward_lstm/PartitionedCall/while/Func/StatefulPartitionedCall/sequential/bidirectional/forward_lstm/PartitionedCall/input/_22_switch/_90", "op": "Switch", "input": ["StatefulPartitionedCall/sequential/bidirectional/forward_lstm/PartitionedCall/while/merge/_78", "StatefulPartitionedCall/sequential/bidirectional/forward_lstm/PartitionedCall/while/LoopCond/_84"], "attr": {"T": {"type": "DT_FLOAT"}}}, {"name": "StatefulPartitionedCall/sequential/bidirectional/forward_lstm/PartitionedCall/while/StatefulPartitionedCall/sequential/bidirectional/forward_lstm/PartitionedCall/TensorArrayUnstack/TensorListFromTensor_switch/_92", "op": "Switch", "input": ["StatefulPartitionedCall/sequential/bidirectional/forward_lstm/PartitionedCall/while/merge/_80", "StatefulPartitionedCall/sequential/bidirectional/forward_lstm/PartitionedCall/while/LoopCond/_84"], "attr": {"T": {"type": "DT_VARIANT"}}}, {"name": "StatefulPartitionedCall/sequential/bidirectional/forward_lstm/PartitionedCall/while/Func/StatefulPartitionedCall/sequential/bidirectional/forward_lstm/PartitionedCall/input/_23_switch/_93", "op": "Switch", "input": ["StatefulPartitionedCall/sequential/bidirectional/forward_lstm/PartitionedCall/while/merge/_81", "StatefulPartitionedCall/sequential/bidirectional/forward_lstm/PartitionedCall/while/LoopCond/_84"], "attr": {"T": {"type": "DT_FLOAT"}}}, {"name": "StatefulPartitionedCall/sequential/bidirectional/forward_lstm/PartitionedCall/while/Func/StatefulPartitionedCall/sequential/bidirectional/forward_lstm/PartitionedCall/input/_21_switch/_89", "op": "Switch", "input": ["StatefulPartitionedCall/sequential/bidirectional/forward_lstm/PartitionedCall/while/merge/_77", "StatefulPartitionedCall/sequential/bidirectional/forward_lstm/PartitionedCall/while/LoopCond/_84"], "attr": {"T": {"type": "DT_FLOAT"}}}, {"name": "StatefulPartitionedCall/sequential/bidirectional/forward_lstm/PartitionedCall/while/Func/StatefulPartitionedCall/sequential/bidirectional/forward_lstm/PartitionedCall/input/_24_switch/_94", "op": "Switch", "input": ["StatefulPartitionedCall/sequential/bidirectional/forward_lstm/PartitionedCall/while/merge/_82", "StatefulPartitionedCall/sequential/bidirectional/forward_lstm/PartitionedCall/while/LoopCond/_84"], "attr": {"T": {"type": "DT_FLOAT"}}}, {"name": "StatefulPartitionedCall/sequential/bidirectional/forward_lstm/PartitionedCall/while/Func/StatefulPartitionedCall/sequential/bidirectional/forward_lstm/PartitionedCall/input/_25_switch/_95", "op": "Switch", "input": ["StatefulPartitionedCall/sequential/bidirectional/forward_lstm/PartitionedCall/while/merge/_83", "StatefulPartitionedCall/sequential/bidirectional/forward_lstm/PartitionedCall/while/LoopCond/_84"], "attr": {"T": {"type": "DT_FLOAT"}}}, {"name": "StatefulPartitionedCall/sequential/bidirectional/forward_lstm/PartitionedCall/while/StatefulPartitionedCall/sequential/bidirectional/forward_lstm/PartitionedCall/time_switch/_87", "op": "Switch", "input": ["StatefulPartitionedCall/sequential/bidirectional/forward_lstm/PartitionedCall/while/merge/_75", "StatefulPartitionedCall/sequential/bidirectional/forward_lstm/PartitionedCall/while/LoopCond/_84"], "attr": {"T": {"type": "DT_INT32"}}}, {"name": "StatefulPartitionedCall/sequential/bidirectional/forward_lstm/PartitionedCall/while/StatefulPartitionedCall/sequential/bidirectional/forward_lstm/PartitionedCall/while/loop_counter_switch/_85", "op": "Switch", "input": ["StatefulPartitionedCall/sequential/bidirectional/forward_lstm/PartitionedCall/while/merge/_73", "StatefulPartitionedCall/sequential/bidirectional/forward_lstm/PartitionedCall/while/LoopCond/_84"], "attr": {"T": {"type": "DT_INT32"}}}, {"name": "StatefulPartitionedCall/sequential/bidirectional/forward_lstm/PartitionedCall/while/StatefulPartitionedCall/sequential/bidirectional/forward_lstm/PartitionedCall/TensorArrayV2_1_switch/_88", "op": "Switch", "input": ["StatefulPartitionedCall/sequential/bidirectional/forward_lstm/PartitionedCall/while/merge/_76", "StatefulPartitionedCall/sequential/bidirectional/forward_lstm/PartitionedCall/while/LoopCond/_84"], "attr": {"T": {"type": "DT_VARIANT"}}}, {"name": "StatefulPartitionedCall/sequential/bidirectional/forward_lstm/PartitionedCall/while/StatefulPartitionedCall/sequential/bidirectional/forward_lstm/PartitionedCall/strided_slice_switch/_91", "op": "Switch", "input": ["StatefulPartitionedCall/sequential/bidirectional/forward_lstm/PartitionedCall/while/merge/_79", "StatefulPartitionedCall/sequential/bidirectional/forward_lstm/PartitionedCall/while/LoopCond/_84"], "attr": {"T": {"type": "DT_INT32"}}}, {"name": "StatefulPartitionedCall/sequential/bidirectional/backward_lstm/PartitionedCall/while/Func/StatefulPartitionedCall/sequential/bidirectional/backward_lstm/PartitionedCall/input/_33_switch/_150", "op": "Switch", "input": ["StatefulPartitionedCall/sequential/bidirectional/backward_lstm/PartitionedCall/while/merge/_138", "StatefulPartitionedCall/sequential/bidirectional/backward_lstm/PartitionedCall/while/LoopCond/_144"], "attr": {"T": {"type": "DT_FLOAT"}}}, {"name": "StatefulPartitionedCall/sequential/bidirectional/backward_lstm/PartitionedCall/while/StatefulPartitionedCall/sequential/bidirectional/backward_lstm/PartitionedCall/TensorArrayUnstack/TensorListFromTensor_switch/_152", "op": "Switch", "input": ["StatefulPartitionedCall/sequential/bidirectional/backward_lstm/PartitionedCall/while/merge/_140", "StatefulPartitionedCall/sequential/bidirectional/backward_lstm/PartitionedCall/while/LoopCond/_144"], "attr": {"T": {"type": "DT_VARIANT"}}}, {"name": "StatefulPartitionedCall/sequential/bidirectional/backward_lstm/PartitionedCall/while/Func/StatefulPartitionedCall/sequential/bidirectional/backward_lstm/PartitionedCall/input/_34_switch/_153", "op": "Switch", "input": ["StatefulPartitionedCall/sequential/bidirectional/backward_lstm/PartitionedCall/while/merge/_141", "StatefulPartitionedCall/sequential/bidirectional/backward_lstm/PartitionedCall/while/LoopCond/_144"], "attr": {"T": {"type": "DT_FLOAT"}}}, {"name": "StatefulPartitionedCall/sequential/bidirectional/backward_lstm/PartitionedCall/while/Func/StatefulPartitionedCall/sequential/bidirectional/backward_lstm/PartitionedCall/input/_32_switch/_149", "op": "Switch", "input": ["StatefulPartitionedCall/sequential/bidirectional/backward_lstm/PartitionedCall/while/merge/_137", "StatefulPartitionedCall/sequential/bidirectional/backward_lstm/PartitionedCall/while/LoopCond/_144"], "attr": {"T": {"type": "DT_FLOAT"}}}, {"name": "StatefulPartitionedCall/sequential/bidirectional/backward_lstm/PartitionedCall/while/Func/StatefulPartitionedCall/sequential/bidirectional/backward_lstm/PartitionedCall/input/_35_switch/_154", "op": "Switch", "input": ["StatefulPartitionedCall/sequential/bidirectional/backward_lstm/PartitionedCall/while/merge/_142", "StatefulPartitionedCall/sequential/bidirectional/backward_lstm/PartitionedCall/while/LoopCond/_144"], "attr": {"T": {"type": "DT_FLOAT"}}}, {"name": "StatefulPartitionedCall/sequential/bidirectional/backward_lstm/PartitionedCall/while/Func/StatefulPartitionedCall/sequential/bidirectional/backward_lstm/PartitionedCall/input/_36_switch/_155", "op": "Switch", "input": ["StatefulPartitionedCall/sequential/bidirectional/backward_lstm/PartitionedCall/while/merge/_143", "StatefulPartitionedCall/sequential/bidirectional/backward_lstm/PartitionedCall/while/LoopCond/_144"], "attr": {"T": {"type": "DT_FLOAT"}}}, {"name": "StatefulPartitionedCall/sequential/bidirectional/backward_lstm/PartitionedCall/while/StatefulPartitionedCall/sequential/bidirectional/backward_lstm/PartitionedCall/time_switch/_147", "op": "Switch", "input": ["StatefulPartitionedCall/sequential/bidirectional/backward_lstm/PartitionedCall/while/merge/_135", "StatefulPartitionedCall/sequential/bidirectional/backward_lstm/PartitionedCall/while/LoopCond/_144"], "attr": {"T": {"type": "DT_INT32"}}}, {"name": "StatefulPartitionedCall/sequential/bidirectional/backward_lstm/PartitionedCall/while/StatefulPartitionedCall/sequential/bidirectional/backward_lstm/PartitionedCall/while/loop_counter_switch/_145", "op": "Switch", "input": ["StatefulPartitionedCall/sequential/bidirectional/backward_lstm/PartitionedCall/while/merge/_133", "StatefulPartitionedCall/sequential/bidirectional/backward_lstm/PartitionedCall/while/LoopCond/_144"], "attr": {"T": {"type": "DT_INT32"}}}, {"name": "StatefulPartitionedCall/sequential/bidirectional/backward_lstm/PartitionedCall/while/StatefulPartitionedCall/sequential/bidirectional/backward_lstm/PartitionedCall/TensorArrayV2_1_switch/_148", "op": "Switch", "input": ["StatefulPartitionedCall/sequential/bidirectional/backward_lstm/PartitionedCall/while/merge/_136", "StatefulPartitionedCall/sequential/bidirectional/backward_lstm/PartitionedCall/while/LoopCond/_144"], "attr": {"T": {"type": "DT_VARIANT"}}}, {"name": "StatefulPartitionedCall/sequential/bidirectional/backward_lstm/PartitionedCall/while/StatefulPartitionedCall/sequential/bidirectional/backward_lstm/PartitionedCall/strided_slice_switch/_151", "op": "Switch", "input": ["StatefulPartitionedCall/sequential/bidirectional/backward_lstm/PartitionedCall/while/merge/_139", "StatefulPartitionedCall/sequential/bidirectional/backward_lstm/PartitionedCall/while/LoopCond/_144"], "attr": {"T": {"type": "DT_INT32"}}}, {"name": "StatefulPartitionedCall/sequential/bidirectional/forward_lstm/PartitionedCall/while/loop_body_control/_96", "op": "Identity", "input": ["StatefulPartitionedCall/sequential/bidirectional/forward_lstm/PartitionedCall/while/StatefulPartitionedCall/sequential/bidirectional/forward_lstm/PartitionedCall/while/loop_counter_switch/_85:1"], "attr": {"T": {"type": "DT_INT32"}, "_has_manual_control_dependencies": {"b": true}}}, {"name": "StatefulPartitionedCall/sequential/bidirectional/forward_lstm/PartitionedCall/while/exit/_100", "op": "Exit", "input": ["StatefulPartitionedCall/sequential/bidirectional/forward_lstm/PartitionedCall/while/StatefulPartitionedCall/sequential/bidirectional/forward_lstm/PartitionedCall/TensorArrayV2_1_switch/_88"], "attr": {"T": {"type": "DT_VARIANT"}}}, {"name": "StatefulPartitionedCall/sequential/bidirectional/backward_lstm/PartitionedCall/while/loop_body_control/_156", "op": "Identity", "input": ["StatefulPartitionedCall/sequential/bidirectional/backward_lstm/PartitionedCall/while/StatefulPartitionedCall/sequential/bidirectional/backward_lstm/PartitionedCall/while/loop_counter_switch/_145:1"], "attr": {"T": {"type": "DT_INT32"}, "_has_manual_control_dependencies": {"b": true}}}, {"name": "StatefulPartitionedCall/sequential/bidirectional/backward_lstm/PartitionedCall/while/exit/_160", "op": "Exit", "input": ["StatefulPartitionedCall/sequential/bidirectional/backward_lstm/PartitionedCall/while/StatefulPartitionedCall/sequential/bidirectional/backward_lstm/PartitionedCall/TensorArrayV2_1_switch/_148"], "attr": {"T": {"type": "DT_VARIANT"}}}, {"name": "StatefulPartitionedCall/sequential/bidirectional/forward_lstm/PartitionedCall/while/body/_61/while/split/split_dim", "op": "Const", "input": ["^StatefulPartitionedCall/sequential/bidirectional/forward_lstm/PartitionedCall/while/loop_body_control/_96"], "attr": {"dtype": {"type": "DT_INT32"}, "value": {"tensor": {"dtype": "DT_INT32", "tensorShape": {}}}}}, {"name": "StatefulPartitionedCall/sequential/bidirectional/forward_lstm/PartitionedCall/while/next_iteration/_116", "op": "NextIteration", "input": ["StatefulPartitionedCall/sequential/bidirectional/forward_lstm/PartitionedCall/while/StatefulPartitionedCall/sequential/bidirectional/forward_lstm/PartitionedCall/TensorArrayUnstack/TensorListFromTensor_switch/_92:1", "^StatefulPartitionedCall/sequential/bidirectional/forward_lstm/PartitionedCall/while/loop_body_control/_96"], "attr": {"T": {"type": "DT_VARIANT"}}}, {"name": "StatefulPartitionedCall/sequential/bidirectional/forward_lstm/PartitionedCall/while/body/_61/while/TensorArrayV2Read/TensorListGetItem/element_shape", "op": "Const", "input": ["^StatefulPartitionedCall/sequential/bidirectional/forward_lstm/PartitionedCall/while/loop_body_control/_96"], "attr": {"dtype": {"type": "DT_INT32"}, "value": {"tensor": {"dtype": "DT_INT32", "tensorShape": {"dim": [{"size": "2"}]}}}}}, {"name": "StatefulPartitionedCall/sequential/bidirectional/forward_lstm/PartitionedCall/while/next_iteration/_117", "op": "NextIteration", "input": ["StatefulPartitionedCall/sequential/bidirectional/forward_lstm/PartitionedCall/while/Func/StatefulPartitionedCall/sequential/bidirectional/forward_lstm/PartitionedCall/input/_23_switch/_93:1", "^StatefulPartitionedCall/sequential/bidirectional/forward_lstm/PartitionedCall/while/loop_body_control/_96"], "attr": {"T": {"type": "DT_FLOAT"}}}, {"name": "StatefulPartitionedCall/sequential/bidirectional/forward_lstm/PartitionedCall/while/next_iteration/_118", "op": "NextIteration", "input": ["StatefulPartitionedCall/sequential/bidirectional/forward_lstm/PartitionedCall/while/Func/StatefulPartitionedCall/sequential/bidirectional/forward_lstm/PartitionedCall/input/_24_switch/_94:1", "^StatefulPartitionedCall/sequential/bidirectional/forward_lstm/PartitionedCall/while/loop_body_control/_96"], "attr": {"T": {"type": "DT_FLOAT"}}}, {"name": "StatefulPartitionedCall/sequential/bidirectional/forward_lstm/PartitionedCall/while/body/_61/while/MatMul_1", "op": "MatMul", "input": ["StatefulPartitionedCall/sequential/bidirectional/forward_lstm/PartitionedCall/while/Func/StatefulPartitionedCall/sequential/bidirectional/forward_lstm/PartitionedCall/input/_21_switch/_89:1", "StatefulPartitionedCall/sequential/bidirectional/forward_lstm/PartitionedCall/while/Func/StatefulPartitionedCall/sequential/bidirectional/forward_lstm/PartitionedCall/input/_24_switch/_94:1", "^StatefulPartitionedCall/sequential/bidirectional/forward_lstm/PartitionedCall/while/loop_body_control/_96"], "device": "/device:CPU:0", "attr": {"transpose_a": {"b": false}, "transpose_b": {"b": false}, "T": {"type": "DT_FLOAT"}}}, {"name": "StatefulPartitionedCall/sequential/bidirectional/forward_lstm/PartitionedCall/while/next_iteration/_119", "op": "NextIteration", "input": ["StatefulPartitionedCall/sequential/bidirectional/forward_lstm/PartitionedCall/while/Func/StatefulPartitionedCall/sequential/bidirectional/forward_lstm/PartitionedCall/input/_25_switch/_95:1", "^StatefulPartitionedCall/sequential/bidirectional/forward_lstm/PartitionedCall/while/loop_body_control/_96"], "attr": {"T": {"type": "DT_FLOAT"}}}, {"name": "Func/StatefulPartitionedCall/sequential/bidirectional/forward_lstm/PartitionedCall/while/body/_61/input/_316", "op": "Identity", "input": ["StatefulPartitionedCall/sequential/bidirectional/forward_lstm/PartitionedCall/while/StatefulPartitionedCall/sequential/bidirectional/forward_lstm/PartitionedCall/time_switch/_87:1", "^StatefulPartitionedCall/sequential/bidirectional/forward_lstm/PartitionedCall/while/loop_body_control/_96"], "attr": {"T": {"type": "DT_INT32"}}}, {"name": "StatefulPartitionedCall/sequential/bidirectional/forward_lstm/PartitionedCall/while/body/_61/while/add_2/y", "op": "Const", "input": ["^StatefulPartitionedCall/sequential/bidirectional/forward_lstm/PartitionedCall/while/loop_body_control/_96"], "attr": {"dtype": {"type": "DT_INT32"}, "value": {"tensor": {"dtype": "DT_INT32", "tensorShape": {}}}}}, {"name": "StatefulPartitionedCall/sequential/bidirectional/forward_lstm/PartitionedCall/while/body/_61/while/add_3/y", "op": "Const", "input": ["^StatefulPartitionedCall/sequential/bidirectional/forward_lstm/PartitionedCall/while/loop_body_control/_96"], "attr": {"dtype": {"type": "DT_INT32"}, "value": {"tensor": {"dtype": "DT_INT32", "tensorShape": {}}}}}, {"name": "StatefulPartitionedCall/sequential/bidirectional/forward_lstm/PartitionedCall/while/next_iteration/_115", "op": "NextIteration", "input": ["StatefulPartitionedCall/sequential/bidirectional/forward_lstm/PartitionedCall/while/StatefulPartitionedCall/sequential/bidirectional/forward_lstm/PartitionedCall/strided_slice_switch/_91:1", "^StatefulPartitionedCall/sequential/bidirectional/forward_lstm/PartitionedCall/while/loop_body_control/_96"], "attr": {"T": {"type": "DT_INT32"}}}, {"name": "StatefulPartitionedCall/sequential/bidirectional/forward_lstm/PartitionedCall/TensorArrayV2Stack/TensorListStack", "op": "TensorListStack", "input": ["StatefulPartitionedCall/sequential/bidirectional/forward_lstm/PartitionedCall/while/exit/_100", "StatefulPartitionedCall/sequential/bidirectional/forward_lstm/PartitionedCall/TensorArrayV2Stack/TensorListStack/element_shape"], "attr": {"element_dtype": {"type": "DT_FLOAT"}, "num_elements": {"i": "-1"}}}, {"name": "StatefulPartitionedCall/sequential/bidirectional/backward_lstm/PartitionedCall/while/body/_121/while/split/split_dim", "op": "Const", "input": ["^StatefulPartitionedCall/sequential/bidirectional/backward_lstm/PartitionedCall/while/loop_body_control/_156"], "attr": {"value": {"tensor": {"dtype": "DT_INT32", "tensorShape": {}}}, "dtype": {"type": "DT_INT32"}}}, {"name": "StatefulPartitionedCall/sequential/bidirectional/backward_lstm/PartitionedCall/while/next_iteration/_176", "op": "NextIteration", "input": ["StatefulPartitionedCall/sequential/bidirectional/backward_lstm/PartitionedCall/while/StatefulPartitionedCall/sequential/bidirectional/backward_lstm/PartitionedCall/TensorArrayUnstack/TensorListFromTensor_switch/_152:1", "^StatefulPartitionedCall/sequential/bidirectional/backward_lstm/PartitionedCall/while/loop_body_control/_156"], "attr": {"T": {"type": "DT_VARIANT"}}}, {"name": "StatefulPartitionedCall/sequential/bidirectional/backward_lstm/PartitionedCall/while/body/_121/while/TensorArrayV2Read/TensorListGetItem/element_shape", "op": "Const", "input": ["^StatefulPartitionedCall/sequential/bidirectional/backward_lstm/PartitionedCall/while/loop_body_control/_156"], "attr": {"dtype": {"type": "DT_INT32"}, "value": {"tensor": {"dtype": "DT_INT32", "tensorShape": {"dim": [{"size": "2"}]}}}}}, {"name": "StatefulPartitionedCall/sequential/bidirectional/backward_lstm/PartitionedCall/while/next_iteration/_177", "op": "NextIteration", "input": ["StatefulPartitionedCall/sequential/bidirectional/backward_lstm/PartitionedCall/while/Func/StatefulPartitionedCall/sequential/bidirectional/backward_lstm/PartitionedCall/input/_34_switch/_153:1", "^StatefulPartitionedCall/sequential/bidirectional/backward_lstm/PartitionedCall/while/loop_body_control/_156"], "attr": {"T": {"type": "DT_FLOAT"}}}, {"name": "StatefulPartitionedCall/sequential/bidirectional/backward_lstm/PartitionedCall/while/next_iteration/_178", "op": "NextIteration", "input": ["StatefulPartitionedCall/sequential/bidirectional/backward_lstm/PartitionedCall/while/Func/StatefulPartitionedCall/sequential/bidirectional/backward_lstm/PartitionedCall/input/_35_switch/_154:1", "^StatefulPartitionedCall/sequential/bidirectional/backward_lstm/PartitionedCall/while/loop_body_control/_156"], "attr": {"T": {"type": "DT_FLOAT"}}}, {"name": "StatefulPartitionedCall/sequential/bidirectional/backward_lstm/PartitionedCall/while/body/_121/while/MatMul_1", "op": "MatMul", "input": ["StatefulPartitionedCall/sequential/bidirectional/backward_lstm/PartitionedCall/while/Func/StatefulPartitionedCall/sequential/bidirectional/backward_lstm/PartitionedCall/input/_32_switch/_149:1", "StatefulPartitionedCall/sequential/bidirectional/backward_lstm/PartitionedCall/while/Func/StatefulPartitionedCall/sequential/bidirectional/backward_lstm/PartitionedCall/input/_35_switch/_154:1", "^StatefulPartitionedCall/sequential/bidirectional/backward_lstm/PartitionedCall/while/loop_body_control/_156"], "device": "/device:CPU:0", "attr": {"transpose_b": {"b": false}, "transpose_a": {"b": false}, "T": {"type": "DT_FLOAT"}}}, {"name": "StatefulPartitionedCall/sequential/bidirectional/backward_lstm/PartitionedCall/while/next_iteration/_179", "op": "NextIteration", "input": ["StatefulPartitionedCall/sequential/bidirectional/backward_lstm/PartitionedCall/while/Func/StatefulPartitionedCall/sequential/bidirectional/backward_lstm/PartitionedCall/input/_36_switch/_155:1", "^StatefulPartitionedCall/sequential/bidirectional/backward_lstm/PartitionedCall/while/loop_body_control/_156"], "attr": {"T": {"type": "DT_FLOAT"}}}, {"name": "Func/StatefulPartitionedCall/sequential/bidirectional/backward_lstm/PartitionedCall/while/body/_121/input/_353", "op": "Identity", "input": ["StatefulPartitionedCall/sequential/bidirectional/backward_lstm/PartitionedCall/while/StatefulPartitionedCall/sequential/bidirectional/backward_lstm/PartitionedCall/time_switch/_147:1", "^StatefulPartitionedCall/sequential/bidirectional/backward_lstm/PartitionedCall/while/loop_body_control/_156"], "attr": {"T": {"type": "DT_INT32"}}}, {"name": "StatefulPartitionedCall/sequential/bidirectional/backward_lstm/PartitionedCall/while/body/_121/while/add_2/y", "op": "Const", "input": ["^StatefulPartitionedCall/sequential/bidirectional/backward_lstm/PartitionedCall/while/loop_body_control/_156"], "attr": {"dtype": {"type": "DT_INT32"}, "value": {"tensor": {"dtype": "DT_INT32", "tensorShape": {}}}}}, {"name": "StatefulPartitionedCall/sequential/bidirectional/backward_lstm/PartitionedCall/while/body/_121/while/add_3/y", "op": "Const", "input": ["^StatefulPartitionedCall/sequential/bidirectional/backward_lstm/PartitionedCall/while/loop_body_control/_156"], "attr": {"value": {"tensor": {"dtype": "DT_INT32", "tensorShape": {}}}, "dtype": {"type": "DT_INT32"}}}, {"name": "StatefulPartitionedCall/sequential/bidirectional/backward_lstm/PartitionedCall/while/next_iteration/_175", "op": "NextIteration", "input": ["StatefulPartitionedCall/sequential/bidirectional/backward_lstm/PartitionedCall/while/StatefulPartitionedCall/sequential/bidirectional/backward_lstm/PartitionedCall/strided_slice_switch/_151:1", "^StatefulPartitionedCall/sequential/bidirectional/backward_lstm/PartitionedCall/while/loop_body_control/_156"], "attr": {"T": {"type": "DT_INT32"}}}, {"name": "StatefulPartitionedCall/sequential/bidirectional/backward_lstm/PartitionedCall/TensorArrayV2Stack/TensorListStack", "op": "TensorListStack", "input": ["StatefulPartitionedCall/sequential/bidirectional/backward_lstm/PartitionedCall/while/exit/_160", "StatefulPartitionedCall/sequential/bidirectional/backward_lstm/PartitionedCall/TensorArrayV2Stack/TensorListStack/element_shape"], "attr": {"num_elements": {"i": "-1"}, "element_dtype": {"type": "DT_FLOAT"}}}, {"name": "StatefulPartitionedCall/sequential/bidirectional/forward_lstm/PartitionedCall/while/body/_61/while/TensorArrayV2Read/TensorListGetItem", "op": "TensorListGetItem", "input": ["StatefulPartitionedCall/sequential/bidirectional/forward_lstm/PartitionedCall/while/StatefulPartitionedCall/sequential/bidirectional/forward_lstm/PartitionedCall/TensorArrayUnstack/TensorListFromTensor_switch/_92:1", "Func/StatefulPartitionedCall/sequential/bidirectional/forward_lstm/PartitionedCall/while/body/_61/input/_316", "StatefulPartitionedCall/sequential/bidirectional/forward_lstm/PartitionedCall/while/body/_61/while/TensorArrayV2Read/TensorListGetItem/element_shape"], "attr": {"element_dtype": {"type": "DT_FLOAT"}}}, {"name": "StatefulPartitionedCall/sequential/bidirectional/forward_lstm/PartitionedCall/while/body/_61/while/add_2", "op": "AddV2", "input": ["Func/StatefulPartitionedCall/sequential/bidirectional/forward_lstm/PartitionedCall/while/body/_61/input/_316", "StatefulPartitionedCall/sequential/bidirectional/forward_lstm/PartitionedCall/while/body/_61/while/add_2/y"], "attr": {"T": {"type": "DT_INT32"}}}, {"name": "StatefulPartitionedCall/sequential/bidirectional/forward_lstm/PartitionedCall/while/body/_61/while/add_3", "op": "AddV2", "input": ["StatefulPartitionedCall/sequential/bidirectional/forward_lstm/PartitionedCall/while/StatefulPartitionedCall/sequential/bidirectional/forward_lstm/PartitionedCall/while/loop_counter_switch/_85:1", "StatefulPartitionedCall/sequential/bidirectional/forward_lstm/PartitionedCall/while/body/_61/while/add_3/y"], "attr": {"T": {"type": "DT_INT32"}}}, {"name": "StatefulPartitionedCall/sequential/bidirectional/forward_lstm/PartitionedCall/transpose_1", "op": "Transpose", "input": ["StatefulPartitionedCall/sequential/bidirectional/forward_lstm/PartitionedCall/TensorArrayV2Stack/TensorListStack", "StatefulPartitionedCall/sequential/bidirectional/forward_lstm/PartitionedCall/transpose_1/perm"], "attr": {"Tperm": {"type": "DT_INT32"}, "T": {"type": "DT_FLOAT"}}}, {"name": "StatefulPartitionedCall/sequential/bidirectional/backward_lstm/PartitionedCall/while/body/_121/while/TensorArrayV2Read/TensorListGetItem", "op": "TensorListGetItem", "input": ["StatefulPartitionedCall/sequential/bidirectional/backward_lstm/PartitionedCall/while/StatefulPartitionedCall/sequential/bidirectional/backward_lstm/PartitionedCall/TensorArrayUnstack/TensorListFromTensor_switch/_152:1", "Func/StatefulPartitionedCall/sequential/bidirectional/backward_lstm/PartitionedCall/while/body/_121/input/_353", "StatefulPartitionedCall/sequential/bidirectional/backward_lstm/PartitionedCall/while/body/_121/while/TensorArrayV2Read/TensorListGetItem/element_shape"], "attr": {"element_dtype": {"type": "DT_FLOAT"}}}, {"name": "StatefulPartitionedCall/sequential/bidirectional/backward_lstm/PartitionedCall/while/body/_121/while/add_2", "op": "AddV2", "input": ["Func/StatefulPartitionedCall/sequential/bidirectional/backward_lstm/PartitionedCall/while/body/_121/input/_353", "StatefulPartitionedCall/sequential/bidirectional/backward_lstm/PartitionedCall/while/body/_121/while/add_2/y"], "attr": {"T": {"type": "DT_INT32"}}}, {"name": "StatefulPartitionedCall/sequential/bidirectional/backward_lstm/PartitionedCall/while/body/_121/while/add_3", "op": "AddV2", "input": ["StatefulPartitionedCall/sequential/bidirectional/backward_lstm/PartitionedCall/while/StatefulPartitionedCall/sequential/bidirectional/backward_lstm/PartitionedCall/while/loop_counter_switch/_145:1", "StatefulPartitionedCall/sequential/bidirectional/backward_lstm/PartitionedCall/while/body/_121/while/add_3/y"], "attr": {"T": {"type": "DT_INT32"}}}, {"name": "StatefulPartitionedCall/sequential/bidirectional/backward_lstm/PartitionedCall/transpose_1", "op": "Transpose", "input": ["StatefulPartitionedCall/sequential/bidirectional/backward_lstm/PartitionedCall/TensorArrayV2Stack/TensorListStack", "StatefulPartitionedCall/sequential/bidirectional/backward_lstm/PartitionedCall/transpose_1/perm"], "attr": {"Tperm": {"type": "DT_INT32"}, "T": {"type": "DT_FLOAT"}}}, {"name": "StatefulPartitionedCall/sequential/bidirectional/forward_lstm/PartitionedCall/while/body/_61/while/add", "op": "_FusedMatMul", "input": ["StatefulPartitionedCall/sequential/bidirectional/forward_lstm/PartitionedCall/while/body/_61/while/TensorArrayV2Read/TensorListGetItem", "StatefulPartitionedCall/sequential/bidirectional/forward_lstm/PartitionedCall/while/Func/StatefulPartitionedCall/sequential/bidirectional/forward_lstm/PartitionedCall/input/_23_switch/_93:1", "StatefulPartitionedCall/sequential/bidirectional/forward_lstm/PartitionedCall/while/body/_61/while/MatMul_1"], "device": "/device:CPU:0", "attr": {"leakyrelu_alpha": {"f": 0.2}, "transpose_b": {"b": false}, "num_args": {"i": "1"}, "fused_ops": {"list": {"s": ["Qmlhc0FkZA=="]}}, "epsilon": {"f": 0.0}, "transpose_a": {"b": false}, "T": {"type": "DT_FLOAT"}}}, {"name": "StatefulPartitionedCall/sequential/bidirectional/forward_lstm/PartitionedCall/while/next_iteration/_111", "op": "NextIteration", "input": ["StatefulPartitionedCall/sequential/bidirectional/forward_lstm/PartitionedCall/while/body/_61/while/add_2", "^StatefulPartitionedCall/sequential/bidirectional/forward_lstm/PartitionedCall/while/loop_body_control/_96"], "attr": {"T": {"type": "DT_INT32"}}}, {"name": "StatefulPartitionedCall/sequential/bidirectional/forward_lstm/PartitionedCall/while/next_iteration/_109", "op": "NextIteration", "input": ["StatefulPartitionedCall/sequential/bidirectional/forward_lstm/PartitionedCall/while/body/_61/while/add_3", "^StatefulPartitionedCall/sequential/bidirectional/forward_lstm/PartitionedCall/while/loop_body_control/_96"], "attr": {"T": {"type": "DT_INT32"}}}, {"name": "StatefulPartitionedCall/sequential/bidirectional/backward_lstm/PartitionedCall/while/body/_121/while/add", "op": "_FusedMatMul", "input": ["StatefulPartitionedCall/sequential/bidirectional/backward_lstm/PartitionedCall/while/body/_121/while/TensorArrayV2Read/TensorListGetItem", "StatefulPartitionedCall/sequential/bidirectional/backward_lstm/PartitionedCall/while/Func/StatefulPartitionedCall/sequential/bidirectional/backward_lstm/PartitionedCall/input/_34_switch/_153:1", "StatefulPartitionedCall/sequential/bidirectional/backward_lstm/PartitionedCall/while/body/_121/while/MatMul_1"], "device": "/device:CPU:0", "attr": {"leakyrelu_alpha": {"f": 0.2}, "T": {"type": "DT_FLOAT"}, "transpose_b": {"b": false}, "epsilon": {"f": 0.0}, "transpose_a": {"b": false}, "fused_ops": {"list": {"s": ["Qmlhc0FkZA=="]}}, "num_args": {"i": "1"}}}, {"name": "StatefulPartitionedCall/sequential/bidirectional/backward_lstm/PartitionedCall/while/next_iteration/_171", "op": "NextIteration", "input": ["StatefulPartitionedCall/sequential/bidirectional/backward_lstm/PartitionedCall/while/body/_121/while/add_2", "^StatefulPartitionedCall/sequential/bidirectional/backward_lstm/PartitionedCall/while/loop_body_control/_156"], "attr": {"T": {"type": "DT_INT32"}}}, {"name": "StatefulPartitionedCall/sequential/bidirectional/backward_lstm/PartitionedCall/while/next_iteration/_169", "op": "NextIteration", "input": ["StatefulPartitionedCall/sequential/bidirectional/backward_lstm/PartitionedCall/while/body/_121/while/add_3", "^StatefulPartitionedCall/sequential/bidirectional/backward_lstm/PartitionedCall/while/loop_body_control/_156"], "attr": {"T": {"type": "DT_INT32"}}}, {"name": "StatefulPartitionedCall/sequential/bidirectional/ReverseV2", "op": "ReverseV2", "input": ["StatefulPartitionedCall/sequential/bidirectional/backward_lstm/PartitionedCall/transpose_1", "StatefulPartitionedCall/sequential/bidirectional/ReverseV2/axis"], "attr": {"Tidx": {"type": "DT_INT32"}, "T": {"type": "DT_FLOAT"}}}, {"name": "StatefulPartitionedCall/sequential/bidirectional/forward_lstm/PartitionedCall/while/body/_61/while/BiasAdd", "op": "BiasAdd", "input": ["StatefulPartitionedCall/sequential/bidirectional/forward_lstm/PartitionedCall/while/body/_61/while/add", "StatefulPartitionedCall/sequential/bidirectional/forward_lstm/PartitionedCall/while/Func/StatefulPartitionedCall/sequential/bidirectional/forward_lstm/PartitionedCall/input/_25_switch/_95:1"], "attr": {"T": {"type": "DT_FLOAT"}, "data_format": {"s": "TkhXQw=="}}}, {"name": "StatefulPartitionedCall/sequential/bidirectional/backward_lstm/PartitionedCall/while/body/_121/while/BiasAdd", "op": "BiasAdd", "input": ["StatefulPartitionedCall/sequential/bidirectional/backward_lstm/PartitionedCall/while/body/_121/while/add", "StatefulPartitionedCall/sequential/bidirectional/backward_lstm/PartitionedCall/while/Func/StatefulPartitionedCall/sequential/bidirectional/backward_lstm/PartitionedCall/input/_36_switch/_155:1"], "attr": {"data_format": {"s": "TkhXQw=="}, "T": {"type": "DT_FLOAT"}}}, {"name": "StatefulPartitionedCall/sequential/bidirectional/concat", "op": "ConcatV2", "input": ["StatefulPartitionedCall/sequential/bidirectional/forward_lstm/PartitionedCall/transpose_1", "StatefulPartitionedCall/sequential/bidirectional/ReverseV2", "StatefulPartitionedCall/sequential/bidirectional/concat/axis"], "attr": {"Tidx": {"type": "DT_INT32"}, "T": {"type": "DT_FLOAT"}, "N": {"i": "2"}}}, {"name": "StatefulPartitionedCall/sequential/bidirectional/forward_lstm/PartitionedCall/while/body/_61/while/split", "op": "Split", "input": ["StatefulPartitionedCall/sequential/bidirectional/forward_lstm/PartitionedCall/while/body/_61/while/split/split_dim", "StatefulPartitionedCall/sequential/bidirectional/forward_lstm/PartitionedCall/while/body/_61/while/BiasAdd"], "attr": {"T": {"type": "DT_FLOAT"}, "num_split": {"i": "4"}}}, {"name": "StatefulPartitionedCall/sequential/bidirectional/backward_lstm/PartitionedCall/while/body/_121/while/split", "op": "Split", "input": ["StatefulPartitionedCall/sequential/bidirectional/backward_lstm/PartitionedCall/while/body/_121/while/split/split_dim", "StatefulPartitionedCall/sequential/bidirectional/backward_lstm/PartitionedCall/while/body/_121/while/BiasAdd"], "attr": {"T": {"type": "DT_FLOAT"}, "num_split": {"i": "4"}}}, {"name": "StatefulPartitionedCall/sequential/bidirectional_1/forward_gru/Shape", "op": "Shape", "input": ["StatefulPartitionedCall/sequential/bidirectional/concat"], "attr": {"T": {"type": "DT_FLOAT"}, "out_type": {"type": "DT_INT32"}}, "experimentalType": {"typeId": "TFT_PRODUCT", "args": [{"typeId": "TFT_SHAPE_TENSOR", "args": [{"typeId": "TFT_INT32"}]}]}}, {"name": "StatefulPartitionedCall/sequential/bidirectional_1/forward_gru/PartitionedCall/transpose", "op": "Transpose", "input": ["StatefulPartitionedCall/sequential/bidirectional/concat", "StatefulPartitionedCall/sequential/bidirectional_1/forward_gru/PartitionedCall/transpose/perm"], "attr": {"T": {"type": "DT_FLOAT"}, "Tperm": {"type": "DT_INT32"}}}, {"name": "StatefulPartitionedCall/sequential/bidirectional_1/backward_gru/Shape", "op": "Shape", "input": ["StatefulPartitionedCall/sequential/bidirectional/concat"], "attr": {"out_type": {"type": "DT_INT32"}, "T": {"type": "DT_FLOAT"}}, "experimentalType": {"typeId": "TFT_PRODUCT", "args": [{"typeId": "TFT_SHAPE_TENSOR", "args": [{"typeId": "TFT_INT32"}]}]}}, {"name": "StatefulPartitionedCall/sequential/bidirectional_1/backward_gru/PartitionedCall/transpose", "op": "Transpose", "input": ["StatefulPartitionedCall/sequential/bidirectional/concat", "StatefulPartitionedCall/sequential/bidirectional_1/backward_gru/PartitionedCall/transpose/perm"], "attr": {"T": {"type": "DT_FLOAT"}, "Tperm": {"type": "DT_INT32"}}}, {"name": "StatefulPartitionedCall/sequential/bidirectional/forward_lstm/PartitionedCall/while/body/_61/while/Sigmoid", "op": "Sigmoid", "input": ["StatefulPartitionedCall/sequential/bidirectional/forward_lstm/PartitionedCall/while/body/_61/while/split"], "attr": {"T": {"type": "DT_FLOAT"}}}, {"name": "StatefulPartitionedCall/sequential/bidirectional/forward_lstm/PartitionedCall/while/body/_61/while/Sigmoid_1", "op": "Sigmoid", "input": ["StatefulPartitionedCall/sequential/bidirectional/forward_lstm/PartitionedCall/while/body/_61/while/split:1"], "attr": {"T": {"type": "DT_FLOAT"}}}, {"name": "StatefulPartitionedCall/sequential/bidirectional/forward_lstm/PartitionedCall/while/body/_61/while/Tanh", "op": "Tanh", "input": ["StatefulPartitionedCall/sequential/bidirectional/forward_lstm/PartitionedCall/while/body/_61/while/split:2"], "attr": {"T": {"type": "DT_FLOAT"}}}, {"name": "StatefulPartitionedCall/sequential/bidirectional/forward_lstm/PartitionedCall/while/body/_61/while/Sigmoid_2", "op": "Sigmoid", "input": ["StatefulPartitionedCall/sequential/bidirectional/forward_lstm/PartitionedCall/while/body/_61/while/split:3"], "attr": {"T": {"type": "DT_FLOAT"}}}, {"name": "StatefulPartitionedCall/sequential/bidirectional/backward_lstm/PartitionedCall/while/body/_121/while/Sigmoid", "op": "Sigmoid", "input": ["StatefulPartitionedCall/sequential/bidirectional/backward_lstm/PartitionedCall/while/body/_121/while/split"], "attr": {"T": {"type": "DT_FLOAT"}}}, {"name": "StatefulPartitionedCall/sequential/bidirectional/backward_lstm/PartitionedCall/while/body/_121/while/Sigmoid_1", "op": "Sigmoid", "input": ["StatefulPartitionedCall/sequential/bidirectional/backward_lstm/PartitionedCall/while/body/_121/while/split:1"], "attr": {"T": {"type": "DT_FLOAT"}}}, {"name": "StatefulPartitionedCall/sequential/bidirectional/backward_lstm/PartitionedCall/while/body/_121/while/Tanh", "op": "Tanh", "input": ["StatefulPartitionedCall/sequential/bidirectional/backward_lstm/PartitionedCall/while/body/_121/while/split:2"], "attr": {"T": {"type": "DT_FLOAT"}}}, {"name": "StatefulPartitionedCall/sequential/bidirectional/backward_lstm/PartitionedCall/while/body/_121/while/Sigmoid_2", "op": "Sigmoid", "input": ["StatefulPartitionedCall/sequential/bidirectional/backward_lstm/PartitionedCall/while/body/_121/while/split:3"], "attr": {"T": {"type": "DT_FLOAT"}}}, {"name": "StatefulPartitionedCall/sequential/bidirectional_1/forward_gru/strided_slice", "op": "StridedSlice", "input": ["StatefulPartitionedCall/sequential/bidirectional_1/forward_gru/Shape", "StatefulPartitionedCall/sequential/bidirectional_1/forward_gru/strided_slice/stack", "StatefulPartitionedCall/sequential/bidirectional_1/forward_gru/strided_slice/stack_1", "StatefulPartitionedCall/sequential/bidirectional_1/forward_gru/strided_slice/stack_2"], "attr": {"ellipsis_mask": {"i": "0"}, "Index": {"type": "DT_INT32"}, "begin_mask": {"i": "0"}, "shrink_axis_mask": {"i": "1"}, "end_mask": {"i": "0"}, "T": {"type": "DT_INT32"}, "new_axis_mask": {"i": "0"}}}, {"name": "StatefulPartitionedCall/sequential/bidirectional_1/forward_gru/PartitionedCall/TensorArrayUnstack/TensorListFromTensor", "op": "TensorListFromTensor", "input": ["StatefulPartitionedCall/sequential/bidirectional_1/forward_gru/PartitionedCall/transpose", "StatefulPartitionedCall/sequential/bidirectional_1/forward_gru/PartitionedCall/TensorArrayUnstack/TensorListFromTensor/element_shape"], "attr": {"element_dtype": {"type": "DT_FLOAT"}, "shape_type": {"type": "DT_INT32"}}, "experimentalType": {"typeId": "TFT_PRODUCT", "args": [{"typeId": "TFT_ARRAY", "args": [{"typeId": "TFT_TENSOR", "args": [{"typeId": "TFT_FLOAT"}]}]}]}}, {"name": "StatefulPartitionedCall/sequential/bidirectional_1/forward_gru/PartitionedCall/Shape", "op": "Shape", "input": ["StatefulPartitionedCall/sequential/bidirectional_1/forward_gru/PartitionedCall/transpose"], "attr": {"out_type": {"type": "DT_INT32"}, "T": {"type": "DT_FLOAT"}}, "experimentalType": {"typeId": "TFT_PRODUCT", "args": [{"typeId": "TFT_SHAPE_TENSOR", "args": [{"typeId": "TFT_INT32"}]}]}}, {"name": "StatefulPartitionedCall/sequential/bidirectional_1/backward_gru/strided_slice", "op": "StridedSlice", "input": ["StatefulPartitionedCall/sequential/bidirectional_1/backward_gru/Shape", "StatefulPartitionedCall/sequential/bidirectional_1/backward_gru/strided_slice/stack", "StatefulPartitionedCall/sequential/bidirectional_1/backward_gru/strided_slice/stack_1", "StatefulPartitionedCall/sequential/bidirectional_1/backward_gru/strided_slice/stack_2"], "attr": {"ellipsis_mask": {"i": "0"}, "new_axis_mask": {"i": "0"}, "end_mask": {"i": "0"}, "T": {"type": "DT_INT32"}, "shrink_axis_mask": {"i": "1"}, "Index": {"type": "DT_INT32"}, "begin_mask": {"i": "0"}}}, {"name": "StatefulPartitionedCall/sequential/bidirectional_1/backward_gru/PartitionedCall/ReverseV2", "op": "ReverseV2", "input": ["StatefulPartitionedCall/sequential/bidirectional_1/backward_gru/PartitionedCall/transpose", "StatefulPartitionedCall/sequential/bidirectional_1/backward_gru/PartitionedCall/ReverseV2/axis"], "attr": {"Tidx": {"type": "DT_INT32"}, "T": {"type": "DT_FLOAT"}}}, {"name": "StatefulPartitionedCall/sequential/bidirectional_1/backward_gru/PartitionedCall/Shape", "op": "Shape", "input": ["StatefulPartitionedCall/sequential/bidirectional_1/backward_gru/PartitionedCall/transpose"], "attr": {"out_type": {"type": "DT_INT32"}, "T": {"type": "DT_FLOAT"}}, "experimentalType": {"typeId": "TFT_PRODUCT", "args": [{"typeId": "TFT_SHAPE_TENSOR", "args": [{"typeId": "TFT_INT32"}]}]}}, {"name": "StatefulPartitionedCall/sequential/bidirectional/forward_lstm/PartitionedCall/while/body/_61/while/mul", "op": "Mul", "input": ["StatefulPartitionedCall/sequential/bidirectional/forward_lstm/PartitionedCall/while/body/_61/while/Sigmoid_1", "StatefulPartitionedCall/sequential/bidirectional/forward_lstm/PartitionedCall/while/Func/StatefulPartitionedCall/sequential/bidirectional/forward_lstm/PartitionedCall/input/_22_switch/_90:1"], "attr": {"T": {"type": "DT_FLOAT"}}}, {"name": "StatefulPartitionedCall/sequential/bidirectional/forward_lstm/PartitionedCall/while/body/_61/while/mul_1", "op": "Mul", "input": ["StatefulPartitionedCall/sequential/bidirectional/forward_lstm/PartitionedCall/while/body/_61/while/Sigmoid", "StatefulPartitionedCall/sequential/bidirectional/forward_lstm/PartitionedCall/while/body/_61/while/Tanh"], "attr": {"T": {"type": "DT_FLOAT"}}}, {"name": "StatefulPartitionedCall/sequential/bidirectional/backward_lstm/PartitionedCall/while/body/_121/while/mul", "op": "Mul", "input": ["StatefulPartitionedCall/sequential/bidirectional/backward_lstm/PartitionedCall/while/body/_121/while/Sigmoid_1", "StatefulPartitionedCall/sequential/bidirectional/backward_lstm/PartitionedCall/while/Func/StatefulPartitionedCall/sequential/bidirectional/backward_lstm/PartitionedCall/input/_33_switch/_150:1"], "attr": {"T": {"type": "DT_FLOAT"}}}, {"name": "StatefulPartitionedCall/sequential/bidirectional/backward_lstm/PartitionedCall/while/body/_121/while/mul_1", "op": "Mul", "input": ["StatefulPartitionedCall/sequential/bidirectional/backward_lstm/PartitionedCall/while/body/_121/while/Sigmoid", "StatefulPartitionedCall/sequential/bidirectional/backward_lstm/PartitionedCall/while/body/_121/while/Tanh"], "attr": {"T": {"type": "DT_FLOAT"}}}, {"name": "StatefulPartitionedCall/sequential/bidirectional_1/forward_gru/zeros/packed", "op": "Pack", "input": ["StatefulPartitionedCall/sequential/bidirectional_1/forward_gru/strided_slice", "StatefulPartitionedCall/sequential/bidirectional_1/forward_gru/zeros/packed/1"], "attr": {"T": {"type": "DT_INT32"}, "N": {"i": "2"}, "axis": {"i": "0"}}}, {"name": "StatefulPartitionedCall/sequential/bidirectional_1/forward_gru/PartitionedCall/while/enter/_188", "op": "Enter", "input": ["StatefulPartitionedCall/sequential/bidirectional_1/forward_gru/PartitionedCall/TensorArrayUnstack/TensorListFromTensor"], "attr": {"parallel_iterations": {"i": "32"}, "T": {"type": "DT_VARIANT"}, "is_constant": {"b": false}, "frame_name": {"s": "U3RhdGVmdWxQYXJ0aXRpb25lZENhbGwvc2VxdWVudGlhbC9iaWRpcmVjdGlvbmFsXzEvZm9yd2FyZF9ncnUvUGFydGl0aW9uZWRDYWxsL3doaWxl"}}}, {"name": "StatefulPartitionedCall/sequential/bidirectional_1/forward_gru/PartitionedCall/strided_slice", "op": "StridedSlice", "input": ["StatefulPartitionedCall/sequential/bidirectional_1/forward_gru/PartitionedCall/Shape", "StatefulPartitionedCall/sequential/bidirectional_1/forward_gru/PartitionedCall/strided_slice/stack", "StatefulPartitionedCall/sequential/bidirectional_1/forward_gru/PartitionedCall/strided_slice/stack_1", "StatefulPartitionedCall/sequential/bidirectional_1/forward_gru/PartitionedCall/strided_slice/stack_2"], "attr": {"new_axis_mask": {"i": "0"}, "ellipsis_mask": {"i": "0"}, "T": {"type": "DT_INT32"}, "shrink_axis_mask": {"i": "1"}, "end_mask": {"i": "0"}, "begin_mask": {"i": "0"}, "Index": {"type": "DT_INT32"}}}, {"name": "StatefulPartitionedCall/sequential/bidirectional_1/backward_gru/zeros/packed", "op": "Pack", "input": ["StatefulPartitionedCall/sequential/bidirectional_1/backward_gru/strided_slice", "StatefulPartitionedCall/sequential/bidirectional_1/backward_gru/zeros/packed/1"], "attr": {"N": {"i": "2"}, "axis": {"i": "0"}, "T": {"type": "DT_INT32"}}}, {"name": "StatefulPartitionedCall/sequential/bidirectional_1/backward_gru/PartitionedCall/TensorArrayUnstack/TensorListFromTensor", "op": "TensorListFromTensor", "input": ["StatefulPartitionedCall/sequential/bidirectional_1/backward_gru/PartitionedCall/ReverseV2", "StatefulPartitionedCall/sequential/bidirectional_1/backward_gru/PartitionedCall/TensorArrayUnstack/TensorListFromTensor/element_shape"], "attr": {"shape_type": {"type": "DT_INT32"}, "element_dtype": {"type": "DT_FLOAT"}}, "experimentalType": {"typeId": "TFT_PRODUCT", "args": [{"typeId": "TFT_ARRAY", "args": [{"typeId": "TFT_TENSOR", "args": [{"typeId": "TFT_FLOAT"}]}]}]}}, {"name": "StatefulPartitionedCall/sequential/bidirectional_1/backward_gru/PartitionedCall/strided_slice", "op": "StridedSlice", "input": ["StatefulPartitionedCall/sequential/bidirectional_1/backward_gru/PartitionedCall/Shape", "StatefulPartitionedCall/sequential/bidirectional_1/backward_gru/PartitionedCall/strided_slice/stack", "StatefulPartitionedCall/sequential/bidirectional_1/backward_gru/PartitionedCall/strided_slice/stack_1", "StatefulPartitionedCall/sequential/bidirectional_1/backward_gru/PartitionedCall/strided_slice/stack_2"], "attr": {"ellipsis_mask": {"i": "0"}, "shrink_axis_mask": {"i": "1"}, "Index": {"type": "DT_INT32"}, "begin_mask": {"i": "0"}, "new_axis_mask": {"i": "0"}, "end_mask": {"i": "0"}, "T": {"type": "DT_INT32"}}}, {"name": "StatefulPartitionedCall/sequential/bidirectional/forward_lstm/PartitionedCall/while/body/_61/while/add_1", "op": "AddV2", "input": ["StatefulPartitionedCall/sequential/bidirectional/forward_lstm/PartitionedCall/while/body/_61/while/mul", "StatefulPartitionedCall/sequential/bidirectional/forward_lstm/PartitionedCall/while/body/_61/while/mul_1"], "attr": {"T": {"type": "DT_FLOAT"}}}, {"name": "StatefulPartitionedCall/sequential/bidirectional/backward_lstm/PartitionedCall/while/body/_121/while/add_1", "op": "AddV2", "input": ["StatefulPartitionedCall/sequential/bidirectional/backward_lstm/PartitionedCall/while/body/_121/while/mul", "StatefulPartitionedCall/sequential/bidirectional/backward_lstm/PartitionedCall/while/body/_121/while/mul_1"], "attr": {"T": {"type": "DT_FLOAT"}}}, {"name": "StatefulPartitionedCall/sequential/bidirectional_1/forward_gru/zeros", "op": "Fill", "input": ["StatefulPartitionedCall/sequential/bidirectional_1/forward_gru/zeros/packed", "StatefulPartitionedCall/sequential/bidirectional_1/forward_gru/zeros/Const"], "attr": {"index_type": {"type": "DT_INT32"}, "T": {"type": "DT_FLOAT"}}}, {"name": "StatefulPartitionedCall/sequential/bidirectional_1/forward_gru/PartitionedCall/while/merge/_199", "op": "Merge", "input": ["StatefulPartitionedCall/sequential/bidirectional_1/forward_gru/PartitionedCall/while/enter/_188", "StatefulPartitionedCall/sequential/bidirectional_1/forward_gru/PartitionedCall/while/next_iteration/_235"], "attr": {"T": {"type": "DT_VARIANT"}, "N": {"i": "2"}}}, {"name": "StatefulPartitionedCall/sequential/bidirectional_1/forward_gru/PartitionedCall/while/enter/_187", "op": "Enter", "input": ["StatefulPartitionedCall/sequential/bidirectional_1/forward_gru/PartitionedCall/strided_slice"], "attr": {"T": {"type": "DT_INT32"}, "is_constant": {"b": false}, "parallel_iterations": {"i": "32"}, "frame_name": {"s": "U3RhdGVmdWxQYXJ0aXRpb25lZENhbGwvc2VxdWVudGlhbC9iaWRpcmVjdGlvbmFsXzEvZm9yd2FyZF9ncnUvUGFydGl0aW9uZWRDYWxsL3doaWxl"}}}, {"name": "StatefulPartitionedCall/sequential/bidirectional_1/backward_gru/zeros", "op": "Fill", "input": ["StatefulPartitionedCall/sequential/bidirectional_1/backward_gru/zeros/packed", "StatefulPartitionedCall/sequential/bidirectional_1/backward_gru/zeros/Const"], "attr": {"index_type": {"type": "DT_INT32"}, "T": {"type": "DT_FLOAT"}}}, {"name": "StatefulPartitionedCall/sequential/bidirectional_1/backward_gru/PartitionedCall/while/enter/_248", "op": "Enter", "input": ["StatefulPartitionedCall/sequential/bidirectional_1/backward_gru/PartitionedCall/TensorArrayUnstack/TensorListFromTensor"], "attr": {"parallel_iterations": {"i": "32"}, "frame_name": {"s": "U3RhdGVmdWxQYXJ0aXRpb25lZENhbGwvc2VxdWVudGlhbC9iaWRpcmVjdGlvbmFsXzEvYmFja3dhcmRfZ3J1L1BhcnRpdGlvbmVkQ2FsbC93aGlsZQ=="}, "T": {"type": "DT_VARIANT"}, "is_constant": {"b": false}}}, {"name": "StatefulPartitionedCall/sequential/bidirectional_1/backward_gru/PartitionedCall/while/enter/_247", "op": "Enter", "input": ["StatefulPartitionedCall/sequential/bidirectional_1/backward_gru/PartitionedCall/strided_slice"], "attr": {"frame_name": {"s": "U3RhdGVmdWxQYXJ0aXRpb25lZENhbGwvc2VxdWVudGlhbC9iaWRpcmVjdGlvbmFsXzEvYmFja3dhcmRfZ3J1L1BhcnRpdGlvbmVkQ2FsbC93aGlsZQ=="}, "is_constant": {"b": false}, "T": {"type": "DT_INT32"}, "parallel_iterations": {"i": "32"}}}, {"name": "StatefulPartitionedCall/sequential/bidirectional/forward_lstm/PartitionedCall/while/body/_61/while/Tanh_1", "op": "Tanh", "input": ["StatefulPartitionedCall/sequential/bidirectional/forward_lstm/PartitionedCall/while/body/_61/while/add_1"], "attr": {"T": {"type": "DT_FLOAT"}}}, {"name": "StatefulPartitionedCall/sequential/bidirectional/forward_lstm/PartitionedCall/while/next_iteration/_114", "op": "NextIteration", "input": ["StatefulPartitionedCall/sequential/bidirectional/forward_lstm/PartitionedCall/while/body/_61/while/add_1", "^StatefulPartitionedCall/sequential/bidirectional/forward_lstm/PartitionedCall/while/loop_body_control/_96"], "attr": {"T": {"type": "DT_FLOAT"}}}, {"name": "StatefulPartitionedCall/sequential/bidirectional/backward_lstm/PartitionedCall/while/body/_121/while/Tanh_1", "op": "Tanh", "input": ["StatefulPartitionedCall/sequential/bidirectional/backward_lstm/PartitionedCall/while/body/_121/while/add_1"], "attr": {"T": {"type": "DT_FLOAT"}}}, {"name": "StatefulPartitionedCall/sequential/bidirectional/backward_lstm/PartitionedCall/while/next_iteration/_174", "op": "NextIteration", "input": ["StatefulPartitionedCall/sequential/bidirectional/backward_lstm/PartitionedCall/while/body/_121/while/add_1", "^StatefulPartitionedCall/sequential/bidirectional/backward_lstm/PartitionedCall/while/loop_body_control/_156"], "attr": {"T": {"type": "DT_FLOAT"}}}, {"name": "StatefulPartitionedCall/sequential/bidirectional_1/forward_gru/PartitionedCall/while/enter/_186", "op": "Enter", "input": ["StatefulPartitionedCall/sequential/bidirectional_1/forward_gru/zeros"], "attr": {"frame_name": {"s": "U3RhdGVmdWxQYXJ0aXRpb25lZENhbGwvc2VxdWVudGlhbC9iaWRpcmVjdGlvbmFsXzEvZm9yd2FyZF9ncnUvUGFydGl0aW9uZWRDYWxsL3doaWxl"}, "T": {"type": "DT_FLOAT"}, "parallel_iterations": {"i": "32"}, "is_constant": {"b": false}}}, {"name": "StatefulPartitionedCall/sequential/bidirectional_1/forward_gru/PartitionedCall/while/merge/_198", "op": "Merge", "input": ["StatefulPartitionedCall/sequential/bidirectional_1/forward_gru/PartitionedCall/while/enter/_187", "StatefulPartitionedCall/sequential/bidirectional_1/forward_gru/PartitionedCall/while/next_iteration/_234"], "attr": {"T": {"type": "DT_INT32"}, "N": {"i": "2"}}}, {"name": "StatefulPartitionedCall/sequential/bidirectional_1/backward_gru/PartitionedCall/while/enter/_246", "op": "Enter", "input": ["StatefulPartitionedCall/sequential/bidirectional_1/backward_gru/zeros"], "attr": {"frame_name": {"s": "U3RhdGVmdWxQYXJ0aXRpb25lZENhbGwvc2VxdWVudGlhbC9iaWRpcmVjdGlvbmFsXzEvYmFja3dhcmRfZ3J1L1BhcnRpdGlvbmVkQ2FsbC93aGlsZQ=="}, "is_constant": {"b": false}, "T": {"type": "DT_FLOAT"}, "parallel_iterations": {"i": "32"}}}, {"name": "StatefulPartitionedCall/sequential/bidirectional_1/backward_gru/PartitionedCall/while/merge/_259", "op": "Merge", "input": ["StatefulPartitionedCall/sequential/bidirectional_1/backward_gru/PartitionedCall/while/enter/_248", "StatefulPartitionedCall/sequential/bidirectional_1/backward_gru/PartitionedCall/while/next_iteration/_295"], "attr": {"T": {"type": "DT_VARIANT"}, "N": {"i": "2"}}}, {"name": "StatefulPartitionedCall/sequential/bidirectional_1/backward_gru/PartitionedCall/while/merge/_258", "op": "Merge", "input": ["StatefulPartitionedCall/sequential/bidirectional_1/backward_gru/PartitionedCall/while/enter/_247", "StatefulPartitionedCall/sequential/bidirectional_1/backward_gru/PartitionedCall/while/next_iteration/_294"], "attr": {"T": {"type": "DT_INT32"}, "N": {"i": "2"}}}, {"name": "StatefulPartitionedCall/sequential/bidirectional/forward_lstm/PartitionedCall/while/body/_61/while/mul_2", "op": "Mul", "input": ["StatefulPartitionedCall/sequential/bidirectional/forward_lstm/PartitionedCall/while/body/_61/while/Sigmoid_2", "StatefulPartitionedCall/sequential/bidirectional/forward_lstm/PartitionedCall/while/body/_61/while/Tanh_1"], "attr": {"T": {"type": "DT_FLOAT"}}}, {"name": "StatefulPartitionedCall/sequential/bidirectional/backward_lstm/PartitionedCall/while/body/_121/while/mul_2", "op": "Mul", "input": ["StatefulPartitionedCall/sequential/bidirectional/backward_lstm/PartitionedCall/while/body/_121/while/Sigmoid_2", "StatefulPartitionedCall/sequential/bidirectional/backward_lstm/PartitionedCall/while/body/_121/while/Tanh_1"], "attr": {"T": {"type": "DT_FLOAT"}}}, {"name": "StatefulPartitionedCall/sequential/bidirectional_1/forward_gru/PartitionedCall/while/merge/_197", "op": "Merge", "input": ["StatefulPartitionedCall/sequential/bidirectional_1/forward_gru/PartitionedCall/while/enter/_186", "StatefulPartitionedCall/sequential/bidirectional_1/forward_gru/PartitionedCall/while/next_iteration/_233"], "attr": {"N": {"i": "2"}, "T": {"type": "DT_FLOAT"}}}, {"name": "StatefulPartitionedCall/sequential/bidirectional_1/forward_gru/PartitionedCall/while/cond/_180/while/Less", "op": "Less", "input": ["StatefulPartitionedCall/sequential/bidirectional_1/forward_gru/PartitionedCall/while/merge/_195", "StatefulPartitionedCall/sequential/bidirectional_1/forward_gru/PartitionedCall/while/merge/_198", "^StatefulPartitionedCall/sequential/bidirectional_1/forward_gru/PartitionedCall/while/merge/_193"], "attr": {"T": {"type": "DT_INT32"}}}, {"name": "StatefulPartitionedCall/sequential/bidirectional_1/backward_gru/PartitionedCall/while/merge/_257", "op": "Merge", "input": ["StatefulPartitionedCall/sequential/bidirectional_1/backward_gru/PartitionedCall/while/enter/_246", "StatefulPartitionedCall/sequential/bidirectional_1/backward_gru/PartitionedCall/while/next_iteration/_293"], "attr": {"N": {"i": "2"}, "T": {"type": "DT_FLOAT"}}}, {"name": "StatefulPartitionedCall/sequential/bidirectional_1/backward_gru/PartitionedCall/while/cond/_240/while/Less", "op": "Less", "input": ["StatefulPartitionedCall/sequential/bidirectional_1/backward_gru/PartitionedCall/while/merge/_255", "StatefulPartitionedCall/sequential/bidirectional_1/backward_gru/PartitionedCall/while/merge/_258", "^StatefulPartitionedCall/sequential/bidirectional_1/backward_gru/PartitionedCall/while/merge/_253"], "attr": {"T": {"type": "DT_INT32"}}}, {"name": "StatefulPartitionedCall/sequential/bidirectional/forward_lstm/PartitionedCall/while/next_iteration/_113", "op": "NextIteration", "input": ["StatefulPartitionedCall/sequential/bidirectional/forward_lstm/PartitionedCall/while/body/_61/while/mul_2", "^StatefulPartitionedCall/sequential/bidirectional/forward_lstm/PartitionedCall/while/loop_body_control/_96"], "attr": {"T": {"type": "DT_FLOAT"}}}, {"name": "StatefulPartitionedCall/sequential/bidirectional/forward_lstm/PartitionedCall/while/body/_61/while/TensorArrayV2Write/TensorListSetItem", "op": "TensorListSetItem", "input": ["StatefulPartitionedCall/sequential/bidirectional/forward_lstm/PartitionedCall/while/StatefulPartitionedCall/sequential/bidirectional/forward_lstm/PartitionedCall/TensorArrayV2_1_switch/_88:1", "Func/StatefulPartitionedCall/sequential/bidirectional/forward_lstm/PartitionedCall/while/body/_61/input/_316", "StatefulPartitionedCall/sequential/bidirectional/forward_lstm/PartitionedCall/while/body/_61/while/mul_2"], "attr": {"resize_if_index_out_of_bounds": {"b": false}, "element_dtype": {"type": "DT_FLOAT"}}, "experimentalType": {"typeId": "TFT_PRODUCT", "args": [{"typeId": "TFT_ARRAY", "args": [{"typeId": "TFT_TENSOR", "args": [{"typeId": "TFT_FLOAT"}]}]}]}}, {"name": "StatefulPartitionedCall/sequential/bidirectional/backward_lstm/PartitionedCall/while/next_iteration/_173", "op": "NextIteration", "input": ["StatefulPartitionedCall/sequential/bidirectional/backward_lstm/PartitionedCall/while/body/_121/while/mul_2", "^StatefulPartitionedCall/sequential/bidirectional/backward_lstm/PartitionedCall/while/loop_body_control/_156"], "attr": {"T": {"type": "DT_FLOAT"}}}, {"name": "StatefulPartitionedCall/sequential/bidirectional/backward_lstm/PartitionedCall/while/body/_121/while/TensorArrayV2Write/TensorListSetItem", "op": "TensorListSetItem", "input": ["StatefulPartitionedCall/sequential/bidirectional/backward_lstm/PartitionedCall/while/StatefulPartitionedCall/sequential/bidirectional/backward_lstm/PartitionedCall/TensorArrayV2_1_switch/_148:1", "Func/StatefulPartitionedCall/sequential/bidirectional/backward_lstm/PartitionedCall/while/body/_121/input/_353", "StatefulPartitionedCall/sequential/bidirectional/backward_lstm/PartitionedCall/while/body/_121/while/mul_2"], "attr": {"element_dtype": {"type": "DT_FLOAT"}, "resize_if_index_out_of_bounds": {"b": false}}, "experimentalType": {"typeId": "TFT_PRODUCT", "args": [{"typeId": "TFT_ARRAY", "args": [{"typeId": "TFT_TENSOR", "args": [{"typeId": "TFT_FLOAT"}]}]}]}}, {"name": "StatefulPartitionedCall/sequential/bidirectional_1/forward_gru/PartitionedCall/while/LoopCond/_204", "op": "LoopCond", "input": ["StatefulPartitionedCall/sequential/bidirectional_1/forward_gru/PartitionedCall/while/cond/_180/while/Less"]}, {"name": "StatefulPartitionedCall/sequential/bidirectional_1/backward_gru/PartitionedCall/while/LoopCond/_264", "op": "LoopCond", "input": ["StatefulPartitionedCall/sequential/bidirectional_1/backward_gru/PartitionedCall/while/cond/_240/while/Less"]}, {"name": "StatefulPartitionedCall/sequential/bidirectional/forward_lstm/PartitionedCall/while/next_iteration/_112", "op": "NextIteration", "input": ["StatefulPartitionedCall/sequential/bidirectional/forward_lstm/PartitionedCall/while/body/_61/while/TensorArrayV2Write/TensorListSetItem", "^StatefulPartitionedCall/sequential/bidirectional/forward_lstm/PartitionedCall/while/loop_body_control/_96"], "attr": {"T": {"type": "DT_VARIANT"}}}, {"name": "StatefulPartitionedCall/sequential/bidirectional/backward_lstm/PartitionedCall/while/next_iteration/_172", "op": "NextIteration", "input": ["StatefulPartitionedCall/sequential/bidirectional/backward_lstm/PartitionedCall/while/body/_121/while/TensorArrayV2Write/TensorListSetItem", "^StatefulPartitionedCall/sequential/bidirectional/backward_lstm/PartitionedCall/while/loop_body_control/_156"], "attr": {"T": {"type": "DT_VARIANT"}}}, {"name": "StatefulPartitionedCall/sequential/bidirectional_1/forward_gru/PartitionedCall/while/StatefulPartitionedCall/sequential/bidirectional_1/forward_gru/PartitionedCall/TensorArrayUnstack/TensorListFromTensor_switch/_211", "op": "Switch", "input": ["StatefulPartitionedCall/sequential/bidirectional_1/forward_gru/PartitionedCall/while/merge/_199", "StatefulPartitionedCall/sequential/bidirectional_1/forward_gru/PartitionedCall/while/LoopCond/_204"], "attr": {"T": {"type": "DT_VARIANT"}}}, {"name": "StatefulPartitionedCall/sequential/bidirectional_1/forward_gru/PartitionedCall/while/Func/StatefulPartitionedCall/sequential/bidirectional_1/forward_gru/PartitionedCall/input/_44_switch/_212", "op": "Switch", "input": ["StatefulPartitionedCall/sequential/bidirectional_1/forward_gru/PartitionedCall/while/merge/_200", "StatefulPartitionedCall/sequential/bidirectional_1/forward_gru/PartitionedCall/while/LoopCond/_204"], "attr": {"T": {"type": "DT_FLOAT"}}}, {"name": "StatefulPartitionedCall/sequential/bidirectional_1/forward_gru/PartitionedCall/while/StatefulPartitionedCall/sequential/bidirectional_1/forward_gru/PartitionedCall/unstack_switch/_213", "op": "Switch", "input": ["StatefulPartitionedCall/sequential/bidirectional_1/forward_gru/PartitionedCall/while/merge/_201", "StatefulPartitionedCall/sequential/bidirectional_1/forward_gru/PartitionedCall/while/LoopCond/_204"], "attr": {"T": {"type": "DT_FLOAT"}}}, {"name": "StatefulPartitionedCall/sequential/bidirectional_1/forward_gru/PartitionedCall/while/Func/StatefulPartitionedCall/sequential/bidirectional_1/forward_gru/PartitionedCall/input/_43_switch/_209", "op": "Switch", "input": ["StatefulPartitionedCall/sequential/bidirectional_1/forward_gru/PartitionedCall/while/merge/_197", "StatefulPartitionedCall/sequential/bidirectional_1/forward_gru/PartitionedCall/while/LoopCond/_204"], "attr": {"T": {"type": "DT_FLOAT"}}}, {"name": "StatefulPartitionedCall/sequential/bidirectional_1/forward_gru/PartitionedCall/while/Func/StatefulPartitionedCall/sequential/bidirectional_1/forward_gru/PartitionedCall/input/_45_switch/_214", "op": "Switch", "input": ["StatefulPartitionedCall/sequential/bidirectional_1/forward_gru/PartitionedCall/while/merge/_202", "StatefulPartitionedCall/sequential/bidirectional_1/forward_gru/PartitionedCall/while/LoopCond/_204"], "attr": {"T": {"type": "DT_FLOAT"}}}, {"name": "StatefulPartitionedCall/sequential/bidirectional_1/forward_gru/PartitionedCall/while/StatefulPartitionedCall/sequential/bidirectional_1/forward_gru/PartitionedCall/unstack_switch/_215", "op": "Switch", "input": ["StatefulPartitionedCall/sequential/bidirectional_1/forward_gru/PartitionedCall/while/merge/_203", "StatefulPartitionedCall/sequential/bidirectional_1/forward_gru/PartitionedCall/while/LoopCond/_204"], "attr": {"T": {"type": "DT_FLOAT"}}}, {"name": "StatefulPartitionedCall/sequential/bidirectional_1/forward_gru/PartitionedCall/while/StatefulPartitionedCall/sequential/bidirectional_1/forward_gru/PartitionedCall/time_switch/_207", "op": "Switch", "input": ["StatefulPartitionedCall/sequential/bidirectional_1/forward_gru/PartitionedCall/while/merge/_195", "StatefulPartitionedCall/sequential/bidirectional_1/forward_gru/PartitionedCall/while/LoopCond/_204"], "attr": {"T": {"type": "DT_INT32"}}}, {"name": "StatefulPartitionedCall/sequential/bidirectional_1/forward_gru/PartitionedCall/while/StatefulPartitionedCall/sequential/bidirectional_1/forward_gru/PartitionedCall/while/loop_counter_switch/_205", "op": "Switch", "input": ["StatefulPartitionedCall/sequential/bidirectional_1/forward_gru/PartitionedCall/while/merge/_193", "StatefulPartitionedCall/sequential/bidirectional_1/forward_gru/PartitionedCall/while/LoopCond/_204"], "attr": {"T": {"type": "DT_INT32"}}}, {"name": "StatefulPartitionedCall/sequential/bidirectional_1/forward_gru/PartitionedCall/while/StatefulPartitionedCall/sequential/bidirectional_1/forward_gru/PartitionedCall/TensorArrayV2_1_switch/_208", "op": "Switch", "input": ["StatefulPartitionedCall/sequential/bidirectional_1/forward_gru/PartitionedCall/while/merge/_196", "StatefulPartitionedCall/sequential/bidirectional_1/forward_gru/PartitionedCall/while/LoopCond/_204"], "attr": {"T": {"type": "DT_VARIANT"}}}, {"name": "StatefulPartitionedCall/sequential/bidirectional_1/forward_gru/PartitionedCall/while/StatefulPartitionedCall/sequential/bidirectional_1/forward_gru/PartitionedCall/strided_slice_switch/_210", "op": "Switch", "input": ["StatefulPartitionedCall/sequential/bidirectional_1/forward_gru/PartitionedCall/while/merge/_198", "StatefulPartitionedCall/sequential/bidirectional_1/forward_gru/PartitionedCall/while/LoopCond/_204"], "attr": {"T": {"type": "DT_INT32"}}}, {"name": "StatefulPartitionedCall/sequential/bidirectional_1/backward_gru/PartitionedCall/while/StatefulPartitionedCall/sequential/bidirectional_1/backward_gru/PartitionedCall/TensorArrayUnstack/TensorListFromTensor_switch/_271", "op": "Switch", "input": ["StatefulPartitionedCall/sequential/bidirectional_1/backward_gru/PartitionedCall/while/merge/_259", "StatefulPartitionedCall/sequential/bidirectional_1/backward_gru/PartitionedCall/while/LoopCond/_264"], "attr": {"T": {"type": "DT_VARIANT"}}}, {"name": "StatefulPartitionedCall/sequential/bidirectional_1/backward_gru/PartitionedCall/while/Func/StatefulPartitionedCall/sequential/bidirectional_1/backward_gru/PartitionedCall/input/_53_switch/_272", "op": "Switch", "input": ["StatefulPartitionedCall/sequential/bidirectional_1/backward_gru/PartitionedCall/while/merge/_260", "StatefulPartitionedCall/sequential/bidirectional_1/backward_gru/PartitionedCall/while/LoopCond/_264"], "attr": {"T": {"type": "DT_FLOAT"}}}, {"name": "StatefulPartitionedCall/sequential/bidirectional_1/backward_gru/PartitionedCall/while/StatefulPartitionedCall/sequential/bidirectional_1/backward_gru/PartitionedCall/unstack_switch/_273", "op": "Switch", "input": ["StatefulPartitionedCall/sequential/bidirectional_1/backward_gru/PartitionedCall/while/merge/_261", "StatefulPartitionedCall/sequential/bidirectional_1/backward_gru/PartitionedCall/while/LoopCond/_264"], "attr": {"T": {"type": "DT_FLOAT"}}}, {"name": "StatefulPartitionedCall/sequential/bidirectional_1/backward_gru/PartitionedCall/while/Func/StatefulPartitionedCall/sequential/bidirectional_1/backward_gru/PartitionedCall/input/_52_switch/_269", "op": "Switch", "input": ["StatefulPartitionedCall/sequential/bidirectional_1/backward_gru/PartitionedCall/while/merge/_257", "StatefulPartitionedCall/sequential/bidirectional_1/backward_gru/PartitionedCall/while/LoopCond/_264"], "attr": {"T": {"type": "DT_FLOAT"}}}, {"name": "StatefulPartitionedCall/sequential/bidirectional_1/backward_gru/PartitionedCall/while/Func/StatefulPartitionedCall/sequential/bidirectional_1/backward_gru/PartitionedCall/input/_54_switch/_274", "op": "Switch", "input": ["StatefulPartitionedCall/sequential/bidirectional_1/backward_gru/PartitionedCall/while/merge/_262", "StatefulPartitionedCall/sequential/bidirectional_1/backward_gru/PartitionedCall/while/LoopCond/_264"], "attr": {"T": {"type": "DT_FLOAT"}}}, {"name": "StatefulPartitionedCall/sequential/bidirectional_1/backward_gru/PartitionedCall/while/StatefulPartitionedCall/sequential/bidirectional_1/backward_gru/PartitionedCall/unstack_switch/_275", "op": "Switch", "input": ["StatefulPartitionedCall/sequential/bidirectional_1/backward_gru/PartitionedCall/while/merge/_263", "StatefulPartitionedCall/sequential/bidirectional_1/backward_gru/PartitionedCall/while/LoopCond/_264"], "attr": {"T": {"type": "DT_FLOAT"}}}, {"name": "StatefulPartitionedCall/sequential/bidirectional_1/backward_gru/PartitionedCall/while/StatefulPartitionedCall/sequential/bidirectional_1/backward_gru/PartitionedCall/time_switch/_267", "op": "Switch", "input": ["StatefulPartitionedCall/sequential/bidirectional_1/backward_gru/PartitionedCall/while/merge/_255", "StatefulPartitionedCall/sequential/bidirectional_1/backward_gru/PartitionedCall/while/LoopCond/_264"], "attr": {"T": {"type": "DT_INT32"}}}, {"name": "StatefulPartitionedCall/sequential/bidirectional_1/backward_gru/PartitionedCall/while/StatefulPartitionedCall/sequential/bidirectional_1/backward_gru/PartitionedCall/while/loop_counter_switch/_265", "op": "Switch", "input": ["StatefulPartitionedCall/sequential/bidirectional_1/backward_gru/PartitionedCall/while/merge/_253", "StatefulPartitionedCall/sequential/bidirectional_1/backward_gru/PartitionedCall/while/LoopCond/_264"], "attr": {"T": {"type": "DT_INT32"}}}, {"name": "StatefulPartitionedCall/sequential/bidirectional_1/backward_gru/PartitionedCall/while/StatefulPartitionedCall/sequential/bidirectional_1/backward_gru/PartitionedCall/TensorArrayV2_1_switch/_268", "op": "Switch", "input": ["StatefulPartitionedCall/sequential/bidirectional_1/backward_gru/PartitionedCall/while/merge/_256", "StatefulPartitionedCall/sequential/bidirectional_1/backward_gru/PartitionedCall/while/LoopCond/_264"], "attr": {"T": {"type": "DT_VARIANT"}}}, {"name": "StatefulPartitionedCall/sequential/bidirectional_1/backward_gru/PartitionedCall/while/StatefulPartitionedCall/sequential/bidirectional_1/backward_gru/PartitionedCall/strided_slice_switch/_270", "op": "Switch", "input": ["StatefulPartitionedCall/sequential/bidirectional_1/backward_gru/PartitionedCall/while/merge/_258", "StatefulPartitionedCall/sequential/bidirectional_1/backward_gru/PartitionedCall/while/LoopCond/_264"], "attr": {"T": {"type": "DT_INT32"}}}, {"name": "StatefulPartitionedCall/sequential/bidirectional_1/forward_gru/PartitionedCall/while/loop_body_control/_216", "op": "Identity", "input": ["StatefulPartitionedCall/sequential/bidirectional_1/forward_gru/PartitionedCall/while/StatefulPartitionedCall/sequential/bidirectional_1/forward_gru/PartitionedCall/while/loop_counter_switch/_205:1"], "attr": {"T": {"type": "DT_INT32"}, "_has_manual_control_dependencies": {"b": true}}}, {"name": "StatefulPartitionedCall/sequential/bidirectional_1/forward_gru/PartitionedCall/while/exit/_220", "op": "Exit", "input": ["StatefulPartitionedCall/sequential/bidirectional_1/forward_gru/PartitionedCall/while/StatefulPartitionedCall/sequential/bidirectional_1/forward_gru/PartitionedCall/TensorArrayV2_1_switch/_208"], "attr": {"T": {"type": "DT_VARIANT"}}}, {"name": "StatefulPartitionedCall/sequential/bidirectional_1/backward_gru/PartitionedCall/while/loop_body_control/_276", "op": "Identity", "input": ["StatefulPartitionedCall/sequential/bidirectional_1/backward_gru/PartitionedCall/while/StatefulPartitionedCall/sequential/bidirectional_1/backward_gru/PartitionedCall/while/loop_counter_switch/_265:1"], "attr": {"_has_manual_control_dependencies": {"b": true}, "T": {"type": "DT_INT32"}}}, {"name": "StatefulPartitionedCall/sequential/bidirectional_1/backward_gru/PartitionedCall/while/exit/_280", "op": "Exit", "input": ["StatefulPartitionedCall/sequential/bidirectional_1/backward_gru/PartitionedCall/while/StatefulPartitionedCall/sequential/bidirectional_1/backward_gru/PartitionedCall/TensorArrayV2_1_switch/_268"], "attr": {"T": {"type": "DT_VARIANT"}}}, {"name": "StatefulPartitionedCall/sequential/bidirectional_1/forward_gru/PartitionedCall/while/body/_181/while/TensorArrayV2Write/TensorListSetItem/index", "op": "Const", "input": ["^StatefulPartitionedCall/sequential/bidirectional_1/forward_gru/PartitionedCall/while/loop_body_control/_216"], "attr": {"value": {"tensor": {"dtype": "DT_INT32", "tensorShape": {}}}, "dtype": {"type": "DT_INT32"}}}, {"name": "StatefulPartitionedCall/sequential/bidirectional_1/forward_gru/PartitionedCall/while/body/_181/while/sub/x", "op": "Const", "input": ["^StatefulPartitionedCall/sequential/bidirectional_1/forward_gru/PartitionedCall/while/loop_body_control/_216"], "attr": {"value": {"tensor": {"dtype": "DT_FLOAT", "tensorShape": {}}}, "dtype": {"type": "DT_FLOAT"}}}, {"name": "StatefulPartitionedCall/sequential/bidirectional_1/forward_gru/PartitionedCall/while/body/_181/while/split/split_dim", "op": "Const", "input": ["^StatefulPartitionedCall/sequential/bidirectional_1/forward_gru/PartitionedCall/while/loop_body_control/_216"], "attr": {"value": {"tensor": {"dtype": "DT_INT32", "tensorShape": {}}}, "dtype": {"type": "DT_INT32"}}}, {"name": "StatefulPartitionedCall/sequential/bidirectional_1/forward_gru/PartitionedCall/while/next_iteration/_235", "op": "NextIteration", "input": ["StatefulPartitionedCall/sequential/bidirectional_1/forward_gru/PartitionedCall/while/StatefulPartitionedCall/sequential/bidirectional_1/forward_gru/PartitionedCall/TensorArrayUnstack/TensorListFromTensor_switch/_211:1", "^StatefulPartitionedCall/sequential/bidirectional_1/forward_gru/PartitionedCall/while/loop_body_control/_216"], "attr": {"T": {"type": "DT_VARIANT"}}}, {"name": "StatefulPartitionedCall/sequential/bidirectional_1/forward_gru/PartitionedCall/while/body/_181/while/TensorArrayV2Read/TensorListGetItem/element_shape", "op": "Const", "input": ["^StatefulPartitionedCall/sequential/bidirectional_1/forward_gru/PartitionedCall/while/loop_body_control/_216"], "attr": {"dtype": {"type": "DT_INT32"}, "value": {"tensor": {"dtype": "DT_INT32", "tensorShape": {"dim": [{"size": "2"}]}}}}}, {"name": "StatefulPartitionedCall/sequential/bidirectional_1/forward_gru/PartitionedCall/while/next_iteration/_236", "op": "NextIteration", "input": ["StatefulPartitionedCall/sequential/bidirectional_1/forward_gru/PartitionedCall/while/Func/StatefulPartitionedCall/sequential/bidirectional_1/forward_gru/PartitionedCall/input/_44_switch/_212:1", "^StatefulPartitionedCall/sequential/bidirectional_1/forward_gru/PartitionedCall/while/loop_body_control/_216"], "attr": {"T": {"type": "DT_FLOAT"}}}, {"name": "StatefulPartitionedCall/sequential/bidirectional_1/forward_gru/PartitionedCall/while/next_iteration/_237", "op": "NextIteration", "input": ["StatefulPartitionedCall/sequential/bidirectional_1/forward_gru/PartitionedCall/while/StatefulPartitionedCall/sequential/bidirectional_1/forward_gru/PartitionedCall/unstack_switch/_213:1", "^StatefulPartitionedCall/sequential/bidirectional_1/forward_gru/PartitionedCall/while/loop_body_control/_216"], "attr": {"T": {"type": "DT_FLOAT"}}}, {"name": "StatefulPartitionedCall/sequential/bidirectional_1/forward_gru/PartitionedCall/while/body/_181/while/split_1/split_dim", "op": "Const", "input": ["^StatefulPartitionedCall/sequential/bidirectional_1/forward_gru/PartitionedCall/while/loop_body_control/_216"], "attr": {"dtype": {"type": "DT_INT32"}, "value": {"tensor": {"dtype": "DT_INT32", "tensorShape": {}}}}}, {"name": "StatefulPartitionedCall/sequential/bidirectional_1/forward_gru/PartitionedCall/while/next_iteration/_238", "op": "NextIteration", "input": ["StatefulPartitionedCall/sequential/bidirectional_1/forward_gru/PartitionedCall/while/Func/StatefulPartitionedCall/sequential/bidirectional_1/forward_gru/PartitionedCall/input/_45_switch/_214:1", "^StatefulPartitionedCall/sequential/bidirectional_1/forward_gru/PartitionedCall/while/loop_body_control/_216"], "attr": {"T": {"type": "DT_FLOAT"}}}, {"name": "StatefulPartitionedCall/sequential/bidirectional_1/forward_gru/PartitionedCall/while/body/_181/while/MatMul_1", "op": "MatMul", "input": ["StatefulPartitionedCall/sequential/bidirectional_1/forward_gru/PartitionedCall/while/Func/StatefulPartitionedCall/sequential/bidirectional_1/forward_gru/PartitionedCall/input/_43_switch/_209:1", "StatefulPartitionedCall/sequential/bidirectional_1/forward_gru/PartitionedCall/while/Func/StatefulPartitionedCall/sequential/bidirectional_1/forward_gru/PartitionedCall/input/_45_switch/_214:1", "^StatefulPartitionedCall/sequential/bidirectional_1/forward_gru/PartitionedCall/while/loop_body_control/_216"], "device": "/device:CPU:0", "attr": {"transpose_b": {"b": false}, "transpose_a": {"b": false}, "T": {"type": "DT_FLOAT"}}}, {"name": "StatefulPartitionedCall/sequential/bidirectional_1/forward_gru/PartitionedCall/while/next_iteration/_239", "op": "NextIteration", "input": ["StatefulPartitionedCall/sequential/bidirectional_1/forward_gru/PartitionedCall/while/StatefulPartitionedCall/sequential/bidirectional_1/forward_gru/PartitionedCall/unstack_switch/_215:1", "^StatefulPartitionedCall/sequential/bidirectional_1/forward_gru/PartitionedCall/while/loop_body_control/_216"], "attr": {"T": {"type": "DT_FLOAT"}}}, {"name": "StatefulPartitionedCall/sequential/bidirectional_1/forward_gru/PartitionedCall/while/body/_181/while/add_4/y", "op": "Const", "input": ["^StatefulPartitionedCall/sequential/bidirectional_1/forward_gru/PartitionedCall/while/loop_body_control/_216"], "attr": {"dtype": {"type": "DT_INT32"}, "value": {"tensor": {"dtype": "DT_INT32", "tensorShape": {}}}}}, {"name": "StatefulPartitionedCall/sequential/bidirectional_1/forward_gru/PartitionedCall/while/body/_181/while/add_5/y", "op": "Const", "input": ["^StatefulPartitionedCall/sequential/bidirectional_1/forward_gru/PartitionedCall/while/loop_body_control/_216"], "attr": {"value": {"tensor": {"dtype": "DT_INT32", "tensorShape": {}}}, "dtype": {"type": "DT_INT32"}}}, {"name": "StatefulPartitionedCall/sequential/bidirectional_1/forward_gru/PartitionedCall/while/next_iteration/_234", "op": "NextIteration", "input": ["StatefulPartitionedCall/sequential/bidirectional_1/forward_gru/PartitionedCall/while/StatefulPartitionedCall/sequential/bidirectional_1/forward_gru/PartitionedCall/strided_slice_switch/_210:1", "^StatefulPartitionedCall/sequential/bidirectional_1/forward_gru/PartitionedCall/while/loop_body_control/_216"], "attr": {"T": {"type": "DT_INT32"}}}, {"name": "StatefulPartitionedCall/sequential/bidirectional_1/forward_gru/PartitionedCall/TensorArrayV2Stack/TensorListStack", "op": "TensorListStack", "input": ["StatefulPartitionedCall/sequential/bidirectional_1/forward_gru/PartitionedCall/while/exit/_220", "StatefulPartitionedCall/sequential/bidirectional_1/forward_gru/PartitionedCall/TensorArrayV2Stack/TensorListStack/element_shape"], "attr": {"element_dtype": {"type": "DT_FLOAT"}, "num_elements": {"i": "1"}}}, {"name": "StatefulPartitionedCall/sequential/bidirectional_1/backward_gru/PartitionedCall/while/body/_241/while/TensorArrayV2Write/TensorListSetItem/index", "op": "Const", "input": ["^StatefulPartitionedCall/sequential/bidirectional_1/backward_gru/PartitionedCall/while/loop_body_control/_276"], "attr": {"dtype": {"type": "DT_INT32"}, "value": {"tensor": {"dtype": "DT_INT32", "tensorShape": {}}}}}, {"name": "StatefulPartitionedCall/sequential/bidirectional_1/backward_gru/PartitionedCall/while/body/_241/while/sub/x", "op": "Const", "input": ["^StatefulPartitionedCall/sequential/bidirectional_1/backward_gru/PartitionedCall/while/loop_body_control/_276"], "attr": {"dtype": {"type": "DT_FLOAT"}, "value": {"tensor": {"dtype": "DT_FLOAT", "tensorShape": {}}}}}, {"name": "StatefulPartitionedCall/sequential/bidirectional_1/backward_gru/PartitionedCall/while/body/_241/while/split/split_dim", "op": "Const", "input": ["^StatefulPartitionedCall/sequential/bidirectional_1/backward_gru/PartitionedCall/while/loop_body_control/_276"], "attr": {"value": {"tensor": {"dtype": "DT_INT32", "tensorShape": {}}}, "dtype": {"type": "DT_INT32"}}}, {"name": "StatefulPartitionedCall/sequential/bidirectional_1/backward_gru/PartitionedCall/while/next_iteration/_295", "op": "NextIteration", "input": ["StatefulPartitionedCall/sequential/bidirectional_1/backward_gru/PartitionedCall/while/StatefulPartitionedCall/sequential/bidirectional_1/backward_gru/PartitionedCall/TensorArrayUnstack/TensorListFromTensor_switch/_271:1", "^StatefulPartitionedCall/sequential/bidirectional_1/backward_gru/PartitionedCall/while/loop_body_control/_276"], "attr": {"T": {"type": "DT_VARIANT"}}}, {"name": "StatefulPartitionedCall/sequential/bidirectional_1/backward_gru/PartitionedCall/while/body/_241/while/TensorArrayV2Read/TensorListGetItem/element_shape", "op": "Const", "input": ["^StatefulPartitionedCall/sequential/bidirectional_1/backward_gru/PartitionedCall/while/loop_body_control/_276"], "attr": {"value": {"tensor": {"dtype": "DT_INT32", "tensorShape": {"dim": [{"size": "2"}]}}}, "dtype": {"type": "DT_INT32"}}}, {"name": "StatefulPartitionedCall/sequential/bidirectional_1/backward_gru/PartitionedCall/while/next_iteration/_296", "op": "NextIteration", "input": ["StatefulPartitionedCall/sequential/bidirectional_1/backward_gru/PartitionedCall/while/Func/StatefulPartitionedCall/sequential/bidirectional_1/backward_gru/PartitionedCall/input/_53_switch/_272:1", "^StatefulPartitionedCall/sequential/bidirectional_1/backward_gru/PartitionedCall/while/loop_body_control/_276"], "attr": {"T": {"type": "DT_FLOAT"}}}, {"name": "StatefulPartitionedCall/sequential/bidirectional_1/backward_gru/PartitionedCall/while/next_iteration/_297", "op": "NextIteration", "input": ["StatefulPartitionedCall/sequential/bidirectional_1/backward_gru/PartitionedCall/while/StatefulPartitionedCall/sequential/bidirectional_1/backward_gru/PartitionedCall/unstack_switch/_273:1", "^StatefulPartitionedCall/sequential/bidirectional_1/backward_gru/PartitionedCall/while/loop_body_control/_276"], "attr": {"T": {"type": "DT_FLOAT"}}}, {"name": "StatefulPartitionedCall/sequential/bidirectional_1/backward_gru/PartitionedCall/while/body/_241/while/split_1/split_dim", "op": "Const", "input": ["^StatefulPartitionedCall/sequential/bidirectional_1/backward_gru/PartitionedCall/while/loop_body_control/_276"], "attr": {"value": {"tensor": {"dtype": "DT_INT32", "tensorShape": {}}}, "dtype": {"type": "DT_INT32"}}}, {"name": "StatefulPartitionedCall/sequential/bidirectional_1/backward_gru/PartitionedCall/while/next_iteration/_298", "op": "NextIteration", "input": ["StatefulPartitionedCall/sequential/bidirectional_1/backward_gru/PartitionedCall/while/Func/StatefulPartitionedCall/sequential/bidirectional_1/backward_gru/PartitionedCall/input/_54_switch/_274:1", "^StatefulPartitionedCall/sequential/bidirectional_1/backward_gru/PartitionedCall/while/loop_body_control/_276"], "attr": {"T": {"type": "DT_FLOAT"}}}, {"name": "StatefulPartitionedCall/sequential/bidirectional_1/backward_gru/PartitionedCall/while/body/_241/while/MatMul_1", "op": "MatMul", "input": ["StatefulPartitionedCall/sequential/bidirectional_1/backward_gru/PartitionedCall/while/Func/StatefulPartitionedCall/sequential/bidirectional_1/backward_gru/PartitionedCall/input/_52_switch/_269:1", "StatefulPartitionedCall/sequential/bidirectional_1/backward_gru/PartitionedCall/while/Func/StatefulPartitionedCall/sequential/bidirectional_1/backward_gru/PartitionedCall/input/_54_switch/_274:1", "^StatefulPartitionedCall/sequential/bidirectional_1/backward_gru/PartitionedCall/while/loop_body_control/_276"], "device": "/device:CPU:0", "attr": {"transpose_b": {"b": false}, "transpose_a": {"b": false}, "T": {"type": "DT_FLOAT"}}}, {"name": "StatefulPartitionedCall/sequential/bidirectional_1/backward_gru/PartitionedCall/while/next_iteration/_299", "op": "NextIteration", "input": ["StatefulPartitionedCall/sequential/bidirectional_1/backward_gru/PartitionedCall/while/StatefulPartitionedCall/sequential/bidirectional_1/backward_gru/PartitionedCall/unstack_switch/_275:1", "^StatefulPartitionedCall/sequential/bidirectional_1/backward_gru/PartitionedCall/while/loop_body_control/_276"], "attr": {"T": {"type": "DT_FLOAT"}}}, {"name": "StatefulPartitionedCall/sequential/bidirectional_1/backward_gru/PartitionedCall/while/body/_241/while/add_4/y", "op": "Const", "input": ["^StatefulPartitionedCall/sequential/bidirectional_1/backward_gru/PartitionedCall/while/loop_body_control/_276"], "attr": {"value": {"tensor": {"dtype": "DT_INT32", "tensorShape": {}}}, "dtype": {"type": "DT_INT32"}}}, {"name": "StatefulPartitionedCall/sequential/bidirectional_1/backward_gru/PartitionedCall/while/body/_241/while/add_5/y", "op": "Const", "input": ["^StatefulPartitionedCall/sequential/bidirectional_1/backward_gru/PartitionedCall/while/loop_body_control/_276"], "attr": {"dtype": {"type": "DT_INT32"}, "value": {"tensor": {"dtype": "DT_INT32", "tensorShape": {}}}}}, {"name": "StatefulPartitionedCall/sequential/bidirectional_1/backward_gru/PartitionedCall/while/next_iteration/_294", "op": "NextIteration", "input": ["StatefulPartitionedCall/sequential/bidirectional_1/backward_gru/PartitionedCall/while/StatefulPartitionedCall/sequential/bidirectional_1/backward_gru/PartitionedCall/strided_slice_switch/_270:1", "^StatefulPartitionedCall/sequential/bidirectional_1/backward_gru/PartitionedCall/while/loop_body_control/_276"], "attr": {"T": {"type": "DT_INT32"}}}, {"name": "StatefulPartitionedCall/sequential/bidirectional_1/backward_gru/PartitionedCall/TensorArrayV2Stack/TensorListStack", "op": "TensorListStack", "input": ["StatefulPartitionedCall/sequential/bidirectional_1/backward_gru/PartitionedCall/while/exit/_280", "StatefulPartitionedCall/sequential/bidirectional_1/backward_gru/PartitionedCall/TensorArrayV2Stack/TensorListStack/element_shape"], "attr": {"element_dtype": {"type": "DT_FLOAT"}, "num_elements": {"i": "1"}}}, {"name": "StatefulPartitionedCall/sequential/bidirectional_1/forward_gru/PartitionedCall/while/body/_181/while/TensorArrayV2Read/TensorListGetItem", "op": "TensorListGetItem", "input": ["StatefulPartitionedCall/sequential/bidirectional_1/forward_gru/PartitionedCall/while/StatefulPartitionedCall/sequential/bidirectional_1/forward_gru/PartitionedCall/TensorArrayUnstack/TensorListFromTensor_switch/_211:1", "StatefulPartitionedCall/sequential/bidirectional_1/forward_gru/PartitionedCall/while/StatefulPartitionedCall/sequential/bidirectional_1/forward_gru/PartitionedCall/time_switch/_207:1", "StatefulPartitionedCall/sequential/bidirectional_1/forward_gru/PartitionedCall/while/body/_181/while/TensorArrayV2Read/TensorListGetItem/element_shape"], "attr": {"element_dtype": {"type": "DT_FLOAT"}}}, {"name": "StatefulPartitionedCall/sequential/bidirectional_1/forward_gru/PartitionedCall/while/body/_181/while/BiasAdd_1", "op": "BiasAdd", "input": ["StatefulPartitionedCall/sequential/bidirectional_1/forward_gru/PartitionedCall/while/body/_181/while/MatMul_1", "StatefulPartitionedCall/sequential/bidirectional_1/forward_gru/PartitionedCall/while/StatefulPartitionedCall/sequential/bidirectional_1/forward_gru/PartitionedCall/unstack_switch/_215:1"], "attr": {"T": {"type": "DT_FLOAT"}, "data_format": {"s": "TkhXQw=="}}}, {"name": "StatefulPartitionedCall/sequential/bidirectional_1/forward_gru/PartitionedCall/while/body/_181/while/add_4", "op": "AddV2", "input": ["StatefulPartitionedCall/sequential/bidirectional_1/forward_gru/PartitionedCall/while/StatefulPartitionedCall/sequential/bidirectional_1/forward_gru/PartitionedCall/time_switch/_207:1", "StatefulPartitionedCall/sequential/bidirectional_1/forward_gru/PartitionedCall/while/body/_181/while/add_4/y"], "attr": {"T": {"type": "DT_INT32"}}}, {"name": "StatefulPartitionedCall/sequential/bidirectional_1/forward_gru/PartitionedCall/while/body/_181/while/add_5", "op": "AddV2", "input": ["StatefulPartitionedCall/sequential/bidirectional_1/forward_gru/PartitionedCall/while/StatefulPartitionedCall/sequential/bidirectional_1/forward_gru/PartitionedCall/while/loop_counter_switch/_205:1", "StatefulPartitionedCall/sequential/bidirectional_1/forward_gru/PartitionedCall/while/body/_181/while/add_5/y"], "attr": {"T": {"type": "DT_INT32"}}}, {"name": "StatefulPartitionedCall/sequential/bidirectional_1/forward_gru/PartitionedCall/strided_slice_2", "op": "StridedSlice", "input": ["StatefulPartitionedCall/sequential/bidirectional_1/forward_gru/PartitionedCall/TensorArrayV2Stack/TensorListStack", "StatefulPartitionedCall/sequential/bidirectional_1/forward_gru/PartitionedCall/strided_slice_2/stack", "StatefulPartitionedCall/sequential/bidirectional_1/forward_gru/PartitionedCall/strided_slice_2/stack_1", "StatefulPartitionedCall/sequential/bidirectional_1/forward_gru/PartitionedCall/strided_slice_2/stack_2"], "attr": {"begin_mask": {"i": "0"}, "ellipsis_mask": {"i": "0"}, "end_mask": {"i": "0"}, "shrink_axis_mask": {"i": "1"}, "T": {"type": "DT_FLOAT"}, "new_axis_mask": {"i": "0"}, "Index": {"type": "DT_INT32"}}}, {"name": "StatefulPartitionedCall/sequential/bidirectional_1/backward_gru/PartitionedCall/while/body/_241/while/TensorArrayV2Read/TensorListGetItem", "op": "TensorListGetItem", "input": ["StatefulPartitionedCall/sequential/bidirectional_1/backward_gru/PartitionedCall/while/StatefulPartitionedCall/sequential/bidirectional_1/backward_gru/PartitionedCall/TensorArrayUnstack/TensorListFromTensor_switch/_271:1", "StatefulPartitionedCall/sequential/bidirectional_1/backward_gru/PartitionedCall/while/StatefulPartitionedCall/sequential/bidirectional_1/backward_gru/PartitionedCall/time_switch/_267:1", "StatefulPartitionedCall/sequential/bidirectional_1/backward_gru/PartitionedCall/while/body/_241/while/TensorArrayV2Read/TensorListGetItem/element_shape"], "attr": {"element_dtype": {"type": "DT_FLOAT"}}}, {"name": "StatefulPartitionedCall/sequential/bidirectional_1/backward_gru/PartitionedCall/while/body/_241/while/BiasAdd_1", "op": "BiasAdd", "input": ["StatefulPartitionedCall/sequential/bidirectional_1/backward_gru/PartitionedCall/while/body/_241/while/MatMul_1", "StatefulPartitionedCall/sequential/bidirectional_1/backward_gru/PartitionedCall/while/StatefulPartitionedCall/sequential/bidirectional_1/backward_gru/PartitionedCall/unstack_switch/_275:1"], "attr": {"data_format": {"s": "TkhXQw=="}, "T": {"type": "DT_FLOAT"}}}, {"name": "StatefulPartitionedCall/sequential/bidirectional_1/backward_gru/PartitionedCall/while/body/_241/while/add_4", "op": "AddV2", "input": ["StatefulPartitionedCall/sequential/bidirectional_1/backward_gru/PartitionedCall/while/StatefulPartitionedCall/sequential/bidirectional_1/backward_gru/PartitionedCall/time_switch/_267:1", "StatefulPartitionedCall/sequential/bidirectional_1/backward_gru/PartitionedCall/while/body/_241/while/add_4/y"], "attr": {"T": {"type": "DT_INT32"}}}, {"name": "StatefulPartitionedCall/sequential/bidirectional_1/backward_gru/PartitionedCall/while/body/_241/while/add_5", "op": "AddV2", "input": ["StatefulPartitionedCall/sequential/bidirectional_1/backward_gru/PartitionedCall/while/StatefulPartitionedCall/sequential/bidirectional_1/backward_gru/PartitionedCall/while/loop_counter_switch/_265:1", "StatefulPartitionedCall/sequential/bidirectional_1/backward_gru/PartitionedCall/while/body/_241/while/add_5/y"], "attr": {"T": {"type": "DT_INT32"}}}, {"name": "StatefulPartitionedCall/sequential/bidirectional_1/backward_gru/PartitionedCall/strided_slice_2", "op": "StridedSlice", "input": ["StatefulPartitionedCall/sequential/bidirectional_1/backward_gru/PartitionedCall/TensorArrayV2Stack/TensorListStack", "StatefulPartitionedCall/sequential/bidirectional_1/backward_gru/PartitionedCall/strided_slice_2/stack", "StatefulPartitionedCall/sequential/bidirectional_1/backward_gru/PartitionedCall/strided_slice_2/stack_1", "StatefulPartitionedCall/sequential/bidirectional_1/backward_gru/PartitionedCall/strided_slice_2/stack_2"], "attr": {"T": {"type": "DT_FLOAT"}, "new_axis_mask": {"i": "0"}, "end_mask": {"i": "0"}, "begin_mask": {"i": "0"}, "shrink_axis_mask": {"i": "1"}, "ellipsis_mask": {"i": "0"}, "Index": {"type": "DT_INT32"}}}, {"name": "StatefulPartitionedCall/sequential/bidirectional_1/forward_gru/PartitionedCall/while/body/_181/while/BiasAdd", "op": "_FusedMatMul", "input": ["StatefulPartitionedCall/sequential/bidirectional_1/forward_gru/PartitionedCall/while/body/_181/while/TensorArrayV2Read/TensorListGetItem", "StatefulPartitionedCall/sequential/bidirectional_1/forward_gru/PartitionedCall/while/Func/StatefulPartitionedCall/sequential/bidirectional_1/forward_gru/PartitionedCall/input/_44_switch/_212:1", "StatefulPartitionedCall/sequential/bidirectional_1/forward_gru/PartitionedCall/while/StatefulPartitionedCall/sequential/bidirectional_1/forward_gru/PartitionedCall/unstack_switch/_213:1"], "device": "/device:CPU:0", "attr": {"leakyrelu_alpha": {"f": 0.2}, "T": {"type": "DT_FLOAT"}, "transpose_a": {"b": false}, "epsilon": {"f": 0.0}, "transpose_b": {"b": false}, "fused_ops": {"list": {"s": ["Qmlhc0FkZA=="]}}, "num_args": {"i": "1"}}}, {"name": "StatefulPartitionedCall/sequential/bidirectional_1/forward_gru/PartitionedCall/while/body/_181/while/split_1", "op": "Split", "input": ["StatefulPartitionedCall/sequential/bidirectional_1/forward_gru/PartitionedCall/while/body/_181/while/split_1/split_dim", "StatefulPartitionedCall/sequential/bidirectional_1/forward_gru/PartitionedCall/while/body/_181/while/BiasAdd_1"], "attr": {"T": {"type": "DT_FLOAT"}, "num_split": {"i": "3"}}}, {"name": "StatefulPartitionedCall/sequential/bidirectional_1/forward_gru/PartitionedCall/while/next_iteration/_231", "op": "NextIteration", "input": ["StatefulPartitionedCall/sequential/bidirectional_1/forward_gru/PartitionedCall/while/body/_181/while/add_4", "^StatefulPartitionedCall/sequential/bidirectional_1/forward_gru/PartitionedCall/while/loop_body_control/_216"], "attr": {"T": {"type": "DT_INT32"}}}, {"name": "StatefulPartitionedCall/sequential/bidirectional_1/forward_gru/PartitionedCall/while/next_iteration/_229", "op": "NextIteration", "input": ["StatefulPartitionedCall/sequential/bidirectional_1/forward_gru/PartitionedCall/while/body/_181/while/add_5", "^StatefulPartitionedCall/sequential/bidirectional_1/forward_gru/PartitionedCall/while/loop_body_control/_216"], "attr": {"T": {"type": "DT_INT32"}}}, {"name": "StatefulPartitionedCall/sequential/bidirectional_1/backward_gru/PartitionedCall/while/body/_241/while/BiasAdd", "op": "_FusedMatMul", "input": ["StatefulPartitionedCall/sequential/bidirectional_1/backward_gru/PartitionedCall/while/body/_241/while/TensorArrayV2Read/TensorListGetItem", "StatefulPartitionedCall/sequential/bidirectional_1/backward_gru/PartitionedCall/while/Func/StatefulPartitionedCall/sequential/bidirectional_1/backward_gru/PartitionedCall/input/_53_switch/_272:1", "StatefulPartitionedCall/sequential/bidirectional_1/backward_gru/PartitionedCall/while/StatefulPartitionedCall/sequential/bidirectional_1/backward_gru/PartitionedCall/unstack_switch/_273:1"], "device": "/device:CPU:0", "attr": {"fused_ops": {"list": {"s": ["Qmlhc0FkZA=="]}}, "num_args": {"i": "1"}, "transpose_b": {"b": false}, "T": {"type": "DT_FLOAT"}, "epsilon": {"f": 0.0}, "transpose_a": {"b": false}, "leakyrelu_alpha": {"f": 0.2}}}, {"name": "StatefulPartitionedCall/sequential/bidirectional_1/backward_gru/PartitionedCall/while/body/_241/while/split_1", "op": "Split", "input": ["StatefulPartitionedCall/sequential/bidirectional_1/backward_gru/PartitionedCall/while/body/_241/while/split_1/split_dim", "StatefulPartitionedCall/sequential/bidirectional_1/backward_gru/PartitionedCall/while/body/_241/while/BiasAdd_1"], "attr": {"num_split": {"i": "3"}, "T": {"type": "DT_FLOAT"}}}, {"name": "StatefulPartitionedCall/sequential/bidirectional_1/backward_gru/PartitionedCall/while/next_iteration/_291", "op": "NextIteration", "input": ["StatefulPartitionedCall/sequential/bidirectional_1/backward_gru/PartitionedCall/while/body/_241/while/add_4", "^StatefulPartitionedCall/sequential/bidirectional_1/backward_gru/PartitionedCall/while/loop_body_control/_276"], "attr": {"T": {"type": "DT_INT32"}}}, {"name": "StatefulPartitionedCall/sequential/bidirectional_1/backward_gru/PartitionedCall/while/next_iteration/_289", "op": "NextIteration", "input": ["StatefulPartitionedCall/sequential/bidirectional_1/backward_gru/PartitionedCall/while/body/_241/while/add_5", "^StatefulPartitionedCall/sequential/bidirectional_1/backward_gru/PartitionedCall/while/loop_body_control/_276"], "attr": {"T": {"type": "DT_INT32"}}}, {"name": "StatefulPartitionedCall/sequential/bidirectional_1/concat", "op": "ConcatV2", "input": ["StatefulPartitionedCall/sequential/bidirectional_1/forward_gru/PartitionedCall/strided_slice_2", "StatefulPartitionedCall/sequential/bidirectional_1/backward_gru/PartitionedCall/strided_slice_2", "StatefulPartitionedCall/sequential/bidirectional_1/concat/axis"], "attr": {"Tidx": {"type": "DT_INT32"}, "T": {"type": "DT_FLOAT"}, "N": {"i": "2"}}}, {"name": "StatefulPartitionedCall/sequential/bidirectional_1/forward_gru/PartitionedCall/while/body/_181/while/split", "op": "Split", "input": ["StatefulPartitionedCall/sequential/bidirectional_1/forward_gru/PartitionedCall/while/body/_181/while/split/split_dim", "StatefulPartitionedCall/sequential/bidirectional_1/forward_gru/PartitionedCall/while/body/_181/while/BiasAdd"], "attr": {"T": {"type": "DT_FLOAT"}, "num_split": {"i": "3"}}}, {"name": "StatefulPartitionedCall/sequential/bidirectional_1/backward_gru/PartitionedCall/while/body/_241/while/split", "op": "Split", "input": ["StatefulPartitionedCall/sequential/bidirectional_1/backward_gru/PartitionedCall/while/body/_241/while/split/split_dim", "StatefulPartitionedCall/sequential/bidirectional_1/backward_gru/PartitionedCall/while/body/_241/while/BiasAdd"], "attr": {"num_split": {"i": "3"}, "T": {"type": "DT_FLOAT"}}}, {"name": "StatefulPartitionedCall/sequential/dense/Relu", "op": "_FusedMatMul", "input": ["StatefulPartitionedCall/sequential/bidirectional_1/concat", "StatefulPartitionedCall/sequential/dense/MatMul/ReadVariableOp", "StatefulPartitionedCall/sequential/dense/BiasAdd/ReadVariableOp"], "device": "/device:CPU:0", "attr": {"T": {"type": "DT_FLOAT"}, "num_args": {"i": "1"}, "transpose_a": {"b": false}, "fused_ops": {"list": {"s": ["Qmlhc0FkZA==", "UmVsdQ=="]}}, "epsilon": {"f": 0.0}, "transpose_b": {"b": false}, "leakyrelu_alpha": {"f": 0.2}}}, {"name": "StatefulPartitionedCall/sequential/bidirectional_1/forward_gru/PartitionedCall/while/body/_181/while/add", "op": "AddV2", "input": ["StatefulPartitionedCall/sequential/bidirectional_1/forward_gru/PartitionedCall/while/body/_181/while/split", "StatefulPartitionedCall/sequential/bidirectional_1/forward_gru/PartitionedCall/while/body/_181/while/split_1"], "attr": {"T": {"type": "DT_FLOAT"}}}, {"name": "StatefulPartitionedCall/sequential/bidirectional_1/forward_gru/PartitionedCall/while/body/_181/while/add_1", "op": "AddV2", "input": ["StatefulPartitionedCall/sequential/bidirectional_1/forward_gru/PartitionedCall/while/body/_181/while/split:1", "StatefulPartitionedCall/sequential/bidirectional_1/forward_gru/PartitionedCall/while/body/_181/while/split_1:1"], "attr": {"T": {"type": "DT_FLOAT"}}}, {"name": "StatefulPartitionedCall/sequential/bidirectional_1/backward_gru/PartitionedCall/while/body/_241/while/add", "op": "AddV2", "input": ["StatefulPartitionedCall/sequential/bidirectional_1/backward_gru/PartitionedCall/while/body/_241/while/split", "StatefulPartitionedCall/sequential/bidirectional_1/backward_gru/PartitionedCall/while/body/_241/while/split_1"], "attr": {"T": {"type": "DT_FLOAT"}}}, {"name": "StatefulPartitionedCall/sequential/bidirectional_1/backward_gru/PartitionedCall/while/body/_241/while/add_1", "op": "AddV2", "input": ["StatefulPartitionedCall/sequential/bidirectional_1/backward_gru/PartitionedCall/while/body/_241/while/split:1", "StatefulPartitionedCall/sequential/bidirectional_1/backward_gru/PartitionedCall/while/body/_241/while/split_1:1"], "attr": {"T": {"type": "DT_FLOAT"}}}, {"name": "StatefulPartitionedCall/sequential/dense_1/BiasAdd", "op": "_FusedMatMul", "input": ["StatefulPartitionedCall/sequential/dense/Relu", "StatefulPartitionedCall/sequential/dense_1/MatMul/ReadVariableOp", "StatefulPartitionedCall/sequential/dense_1/BiasAdd/ReadVariableOp"], "device": "/device:CPU:0", "attr": {"T": {"type": "DT_FLOAT"}, "fused_ops": {"list": {"s": ["Qmlhc0FkZA=="]}}, "transpose_a": {"b": false}, "epsilon": {"f": 0.0}, "transpose_b": {"b": false}, "leakyrelu_alpha": {"f": 0.2}, "num_args": {"i": "1"}}}, {"name": "StatefulPartitionedCall/sequential/bidirectional_1/forward_gru/PartitionedCall/while/body/_181/while/Sigmoid", "op": "Sigmoid", "input": ["StatefulPartitionedCall/sequential/bidirectional_1/forward_gru/PartitionedCall/while/body/_181/while/add"], "attr": {"T": {"type": "DT_FLOAT"}}}, {"name": "StatefulPartitionedCall/sequential/bidirectional_1/forward_gru/PartitionedCall/while/body/_181/while/Sigmoid_1", "op": "Sigmoid", "input": ["StatefulPartitionedCall/sequential/bidirectional_1/forward_gru/PartitionedCall/while/body/_181/while/add_1"], "attr": {"T": {"type": "DT_FLOAT"}}}, {"name": "StatefulPartitionedCall/sequential/bidirectional_1/backward_gru/PartitionedCall/while/body/_241/while/Sigmoid", "op": "Sigmoid", "input": ["StatefulPartitionedCall/sequential/bidirectional_1/backward_gru/PartitionedCall/while/body/_241/while/add"], "attr": {"T": {"type": "DT_FLOAT"}}}, {"name": "StatefulPartitionedCall/sequential/bidirectional_1/backward_gru/PartitionedCall/while/body/_241/while/Sigmoid_1", "op": "Sigmoid", "input": ["StatefulPartitionedCall/sequential/bidirectional_1/backward_gru/PartitionedCall/while/body/_241/while/add_1"], "attr": {"T": {"type": "DT_FLOAT"}}}, {"name": "StatefulPartitionedCall/sequential/dense_1/Softmax", "op": "Softmax", "input": ["StatefulPartitionedCall/sequential/dense_1/BiasAdd"], "attr": {"T": {"type": "DT_FLOAT"}}}, {"name": "StatefulPartitionedCall/sequential/bidirectional_1/forward_gru/PartitionedCall/while/body/_181/while/mul_1", "op": "Mul", "input": ["StatefulPartitionedCall/sequential/bidirectional_1/forward_gru/PartitionedCall/while/body/_181/while/Sigmoid", "StatefulPartitionedCall/sequential/bidirectional_1/forward_gru/PartitionedCall/while/Func/StatefulPartitionedCall/sequential/bidirectional_1/forward_gru/PartitionedCall/input/_43_switch/_209:1"], "attr": {"T": {"type": "DT_FLOAT"}}}, {"name": "StatefulPartitionedCall/sequential/bidirectional_1/forward_gru/PartitionedCall/while/body/_181/while/sub", "op": "Sub", "input": ["StatefulPartitionedCall/sequential/bidirectional_1/forward_gru/PartitionedCall/while/body/_181/while/sub/x", "StatefulPartitionedCall/sequential/bidirectional_1/forward_gru/PartitionedCall/while/body/_181/while/Sigmoid"], "attr": {"T": {"type": "DT_FLOAT"}}}, {"name": "StatefulPartitionedCall/sequential/bidirectional_1/forward_gru/PartitionedCall/while/body/_181/while/mul", "op": "Mul", "input": ["StatefulPartitionedCall/sequential/bidirectional_1/forward_gru/PartitionedCall/while/body/_181/while/Sigmoid_1", "StatefulPartitionedCall/sequential/bidirectional_1/forward_gru/PartitionedCall/while/body/_181/while/split_1:2"], "attr": {"T": {"type": "DT_FLOAT"}}}, {"name": "StatefulPartitionedCall/sequential/bidirectional_1/backward_gru/PartitionedCall/while/body/_241/while/mul_1", "op": "Mul", "input": ["StatefulPartitionedCall/sequential/bidirectional_1/backward_gru/PartitionedCall/while/body/_241/while/Sigmoid", "StatefulPartitionedCall/sequential/bidirectional_1/backward_gru/PartitionedCall/while/Func/StatefulPartitionedCall/sequential/bidirectional_1/backward_gru/PartitionedCall/input/_52_switch/_269:1"], "attr": {"T": {"type": "DT_FLOAT"}}}, {"name": "StatefulPartitionedCall/sequential/bidirectional_1/backward_gru/PartitionedCall/while/body/_241/while/sub", "op": "Sub", "input": ["StatefulPartitionedCall/sequential/bidirectional_1/backward_gru/PartitionedCall/while/body/_241/while/sub/x", "StatefulPartitionedCall/sequential/bidirectional_1/backward_gru/PartitionedCall/while/body/_241/while/Sigmoid"], "attr": {"T": {"type": "DT_FLOAT"}}}, {"name": "StatefulPartitionedCall/sequential/bidirectional_1/backward_gru/PartitionedCall/while/body/_241/while/mul", "op": "Mul", "input": ["StatefulPartitionedCall/sequential/bidirectional_1/backward_gru/PartitionedCall/while/body/_241/while/Sigmoid_1", "StatefulPartitionedCall/sequential/bidirectional_1/backward_gru/PartitionedCall/while/body/_241/while/split_1:2"], "attr": {"T": {"type": "DT_FLOAT"}}}, {"name": "Identity", "op": "Identity", "input": ["StatefulPartitionedCall/sequential/dense_1/Softmax", "^StatefulPartitionedCall/sequential/embedding/embedding_lookup"], "attr": {"T": {"type": "DT_FLOAT"}}}, {"name": "StatefulPartitionedCall/sequential/bidirectional_1/forward_gru/PartitionedCall/while/body/_181/while/add_2", "op": "AddV2", "input": ["StatefulPartitionedCall/sequential/bidirectional_1/forward_gru/PartitionedCall/while/body/_181/while/split:2", "StatefulPartitionedCall/sequential/bidirectional_1/forward_gru/PartitionedCall/while/body/_181/while/mul"], "attr": {"T": {"type": "DT_FLOAT"}}}, {"name": "StatefulPartitionedCall/sequential/bidirectional_1/backward_gru/PartitionedCall/while/body/_241/while/add_2", "op": "AddV2", "input": ["StatefulPartitionedCall/sequential/bidirectional_1/backward_gru/PartitionedCall/while/body/_241/while/split:2", "StatefulPartitionedCall/sequential/bidirectional_1/backward_gru/PartitionedCall/while/body/_241/while/mul"], "attr": {"T": {"type": "DT_FLOAT"}}}, {"name": "StatefulPartitionedCall/sequential/bidirectional_1/forward_gru/PartitionedCall/while/body/_181/while/Tanh", "op": "Tanh", "input": ["StatefulPartitionedCall/sequential/bidirectional_1/forward_gru/PartitionedCall/while/body/_181/while/add_2"], "attr": {"T": {"type": "DT_FLOAT"}}}, {"name": "StatefulPartitionedCall/sequential/bidirectional_1/backward_gru/PartitionedCall/while/body/_241/while/Tanh", "op": "Tanh", "input": ["StatefulPartitionedCall/sequential/bidirectional_1/backward_gru/PartitionedCall/while/body/_241/while/add_2"], "attr": {"T": {"type": "DT_FLOAT"}}}, {"name": "StatefulPartitionedCall/sequential/bidirectional_1/forward_gru/PartitionedCall/while/body/_181/while/mul_2", "op": "Mul", "input": ["StatefulPartitionedCall/sequential/bidirectional_1/forward_gru/PartitionedCall/while/body/_181/while/sub", "StatefulPartitionedCall/sequential/bidirectional_1/forward_gru/PartitionedCall/while/body/_181/while/Tanh"], "attr": {"T": {"type": "DT_FLOAT"}}}, {"name": "StatefulPartitionedCall/sequential/bidirectional_1/backward_gru/PartitionedCall/while/body/_241/while/mul_2", "op": "Mul", "input": ["StatefulPartitionedCall/sequential/bidirectional_1/backward_gru/PartitionedCall/while/body/_241/while/sub", "StatefulPartitionedCall/sequential/bidirectional_1/backward_gru/PartitionedCall/while/body/_241/while/Tanh"], "attr": {"T": {"type": "DT_FLOAT"}}}, {"name": "StatefulPartitionedCall/sequential/bidirectional_1/forward_gru/PartitionedCall/while/body/_181/while/add_3", "op": "AddV2", "input": ["StatefulPartitionedCall/sequential/bidirectional_1/forward_gru/PartitionedCall/while/body/_181/while/mul_1", "StatefulPartitionedCall/sequential/bidirectional_1/forward_gru/PartitionedCall/while/body/_181/while/mul_2"], "attr": {"T": {"type": "DT_FLOAT"}}}, {"name": "StatefulPartitionedCall/sequential/bidirectional_1/backward_gru/PartitionedCall/while/body/_241/while/add_3", "op": "AddV2", "input": ["StatefulPartitionedCall/sequential/bidirectional_1/backward_gru/PartitionedCall/while/body/_241/while/mul_1", "StatefulPartitionedCall/sequential/bidirectional_1/backward_gru/PartitionedCall/while/body/_241/while/mul_2"], "attr": {"T": {"type": "DT_FLOAT"}}}, {"name": "StatefulPartitionedCall/sequential/bidirectional_1/forward_gru/PartitionedCall/while/next_iteration/_233", "op": "NextIteration", "input": ["StatefulPartitionedCall/sequential/bidirectional_1/forward_gru/PartitionedCall/while/body/_181/while/add_3", "^StatefulPartitionedCall/sequential/bidirectional_1/forward_gru/PartitionedCall/while/loop_body_control/_216"], "attr": {"T": {"type": "DT_FLOAT"}}}, {"name": "StatefulPartitionedCall/sequential/bidirectional_1/forward_gru/PartitionedCall/while/body/_181/while/TensorArrayV2Write/TensorListSetItem", "op": "TensorListSetItem", "input": ["StatefulPartitionedCall/sequential/bidirectional_1/forward_gru/PartitionedCall/while/StatefulPartitionedCall/sequential/bidirectional_1/forward_gru/PartitionedCall/TensorArrayV2_1_switch/_208:1", "StatefulPartitionedCall/sequential/bidirectional_1/forward_gru/PartitionedCall/while/body/_181/while/TensorArrayV2Write/TensorListSetItem/index", "StatefulPartitionedCall/sequential/bidirectional_1/forward_gru/PartitionedCall/while/body/_181/while/add_3"], "attr": {"resize_if_index_out_of_bounds": {"b": false}, "element_dtype": {"type": "DT_FLOAT"}}, "experimentalType": {"typeId": "TFT_PRODUCT", "args": [{"typeId": "TFT_ARRAY", "args": [{"typeId": "TFT_TENSOR", "args": [{"typeId": "TFT_FLOAT"}]}]}]}}, {"name": "StatefulPartitionedCall/sequential/bidirectional_1/backward_gru/PartitionedCall/while/next_iteration/_293", "op": "NextIteration", "input": ["StatefulPartitionedCall/sequential/bidirectional_1/backward_gru/PartitionedCall/while/body/_241/while/add_3", "^StatefulPartitionedCall/sequential/bidirectional_1/backward_gru/PartitionedCall/while/loop_body_control/_276"], "attr": {"T": {"type": "DT_FLOAT"}}}, {"name": "StatefulPartitionedCall/sequential/bidirectional_1/backward_gru/PartitionedCall/while/body/_241/while/TensorArrayV2Write/TensorListSetItem", "op": "TensorListSetItem", "input": ["StatefulPartitionedCall/sequential/bidirectional_1/backward_gru/PartitionedCall/while/StatefulPartitionedCall/sequential/bidirectional_1/backward_gru/PartitionedCall/TensorArrayV2_1_switch/_268:1", "StatefulPartitionedCall/sequential/bidirectional_1/backward_gru/PartitionedCall/while/body/_241/while/TensorArrayV2Write/TensorListSetItem/index", "StatefulPartitionedCall/sequential/bidirectional_1/backward_gru/PartitionedCall/while/body/_241/while/add_3"], "attr": {"resize_if_index_out_of_bounds": {"b": false}, "element_dtype": {"type": "DT_FLOAT"}}, "experimentalType": {"typeId": "TFT_PRODUCT", "args": [{"typeId": "TFT_ARRAY", "args": [{"typeId": "TFT_TENSOR", "args": [{"typeId": "TFT_FLOAT"}]}]}]}}, {"name": "StatefulPartitionedCall/sequential/bidirectional_1/forward_gru/PartitionedCall/while/next_iteration/_232", "op": "NextIteration", "input": ["StatefulPartitionedCall/sequential/bidirectional_1/forward_gru/PartitionedCall/while/body/_181/while/TensorArrayV2Write/TensorListSetItem", "^StatefulPartitionedCall/sequential/bidirectional_1/forward_gru/PartitionedCall/while/loop_body_control/_216"], "attr": {"T": {"type": "DT_VARIANT"}}}, {"name": "StatefulPartitionedCall/sequential/bidirectional_1/backward_gru/PartitionedCall/while/next_iteration/_292", "op": "NextIteration", "input": ["StatefulPartitionedCall/sequential/bidirectional_1/backward_gru/PartitionedCall/while/body/_241/while/TensorArrayV2Write/TensorListSetItem", "^StatefulPartitionedCall/sequential/bidirectional_1/backward_gru/PartitionedCall/while/loop_body_control/_276"], "attr": {"T": {"type": "DT_VARIANT"}}}], "library": {}, "versions": {"producer": 1645}}, "weightsManifest": [{"paths": ["group1-shard1of2.bin", "group1-shard2of2.bin"], "weights": [{"name": "StatefulPartitionedCall/sequential/bidirectional_1/forward_gru/PartitionedCall/TensorArrayV2_1/element_shape", "shape": [2], "dtype": "int32"}, {"name": "StatefulPartitionedCall/sequential/bidirectional_1/forward_gru/PartitionedCall/TensorArrayV2_1/num_elements", "shape": [], "dtype": "int32"}, {"name": "StatefulPartitionedCall/sequential/bidirectional_1/forward_gru/PartitionedCall/TensorArrayUnstack/TensorListFromTensor/element_shape", "shape": [2], "dtype": "int32"}, {"name": "StatefulPartitionedCall/sequential/bidirectional_1/forward_gru/Read/ReadVariableOp", "shape": [128, 96], "dtype": "float32"}, {"name": "ConstantFolding/StatefulPartitionedCall/sequential/bidirectional_1/forward_gru/PartitionedCall/unstack-folded-0", "shape": [96], "dtype": "float32"}, {"name": "StatefulPartitionedCall/sequential/bidirectional_1/forward_gru/strided_slice/stack", "shape": [1], "dtype": "int32"}, {"name": "StatefulPartitionedCall/sequential/bidirectional_1/forward_gru/strided_slice/stack_1", "shape": [1], "dtype": "int32"}, {"name": "StatefulPartitionedCall/sequential/bidirectional_1/forward_gru/strided_slice/stack_2", "shape": [1], "dtype": "int32"}, {"name": "StatefulPartitionedCall/sequential/bidirectional_1/forward_gru/zeros/packed/1", "shape": [], "dtype": "int32"}, {"name": "StatefulPartitionedCall/sequential/bidirectional_1/forward_gru/zeros/Const", "shape": [], "dtype": "float32"}, {"name": "StatefulPartitionedCall/sequential/bidirectional_1/forward_gru/Read_1/ReadVariableOp", "shape": [32, 96], "dtype": "float32"}, {"name": "ConstantFolding/StatefulPartitionedCall/sequential/bidirectional_1/forward_gru/PartitionedCall/unstack-folded-1", "shape": [96], "dtype": "float32"}, {"name": "StatefulPartitionedCall/sequential/bidirectional_1/forward_gru/PartitionedCall/time", "shape": [], "dtype": "int32"}, {"name": "StatefulPartitionedCall/sequential/bidirectional_1/forward_gru/PartitionedCall/transpose/perm", "shape": [3], "dtype": "int32"}, {"name": "StatefulPartitionedCall/sequential/bidirectional_1/forward_gru/PartitionedCall/strided_slice/stack", "shape": [1], "dtype": "int32"}, {"name": "StatefulPartitionedCall/sequential/bidirectional_1/forward_gru/PartitionedCall/strided_slice/stack_1", "shape": [1], "dtype": "int32"}, {"name": "StatefulPartitionedCall/sequential/bidirectional_1/forward_gru/PartitionedCall/strided_slice/stack_2", "shape": [1], "dtype": "int32"}, {"name": "StatefulPartitionedCall/sequential/bidirectional_1/forward_gru/PartitionedCall/while/loop_counter", "shape": [], "dtype": "int32"}, {"name": "StatefulPartitionedCall/sequential/bidirectional_1/forward_gru/PartitionedCall/TensorArrayV2Stack/TensorListStack/element_shape", "shape": [2], "dtype": "int32"}, {"name": "StatefulPartitionedCall/sequential/bidirectional_1/forward_gru/PartitionedCall/strided_slice_2/stack", "shape": [1], "dtype": "int32"}, {"name": "StatefulPartitionedCall/sequential/bidirectional_1/forward_gru/PartitionedCall/strided_slice_2/stack_1", "shape": [1], "dtype": "int32"}, {"name": "StatefulPartitionedCall/sequential/bidirectional_1/forward_gru/PartitionedCall/strided_slice_2/stack_2", "shape": [1], "dtype": "int32"}, {"name": "StatefulPartitionedCall/sequential/bidirectional_1/backward_gru/PartitionedCall/TensorArrayV2_1/element_shape", "shape": [2], "dtype": "int32"}, {"name": "StatefulPartitionedCall/sequential/bidirectional_1/backward_gru/PartitionedCall/TensorArrayV2_1/num_elements", "shape": [], "dtype": "int32"}, {"name": "StatefulPartitionedCall/sequential/bidirectional_1/backward_gru/PartitionedCall/ReverseV2/axis", "shape": [1], "dtype": "int32"}, {"name": "StatefulPartitionedCall/sequential/bidirectional_1/backward_gru/PartitionedCall/TensorArrayUnstack/TensorListFromTensor/element_shape", "shape": [2], "dtype": "int32"}, {"name": "StatefulPartitionedCall/sequential/bidirectional_1/backward_gru/Read/ReadVariableOp", "shape": [128, 96], "dtype": "float32"}, {"name": "ConstantFolding/StatefulPartitionedCall/sequential/bidirectional_1/backward_gru/PartitionedCall/unstack-folded-0", "shape": [96], "dtype": "float32"}, {"name": "StatefulPartitionedCall/sequential/bidirectional_1/backward_gru/strided_slice/stack", "shape": [1], "dtype": "int32"}, {"name": "StatefulPartitionedCall/sequential/bidirectional_1/backward_gru/strided_slice/stack_1", "shape": [1], "dtype": "int32"}, {"name": "StatefulPartitionedCall/sequential/bidirectional_1/backward_gru/strided_slice/stack_2", "shape": [1], "dtype": "int32"}, {"name": "StatefulPartitionedCall/sequential/bidirectional_1/backward_gru/zeros/packed/1", "shape": [], "dtype": "int32"}, {"name": "StatefulPartitionedCall/sequential/bidirectional_1/backward_gru/zeros/Const", "shape": [], "dtype": "float32"}, {"name": "StatefulPartitionedCall/sequential/bidirectional_1/backward_gru/Read_1/ReadVariableOp", "shape": [32, 96], "dtype": "float32"}, {"name": "ConstantFolding/StatefulPartitionedCall/sequential/bidirectional_1/backward_gru/PartitionedCall/unstack-folded-1", "shape": [96], "dtype": "float32"}, {"name": "StatefulPartitionedCall/sequential/bidirectional_1/backward_gru/PartitionedCall/time", "shape": [], "dtype": "int32"}, {"name": "StatefulPartitionedCall/sequential/bidirectional/forward_lstm/PartitionedCall/TensorArrayV2_1/element_shape", "shape": [2], "dtype": "int32"}, {"name": "StatefulPartitionedCall/sequential/bidirectional/forward_lstm/zeros_1/packed/1", "shape": [], "dtype": "int32"}, {"name": "StatefulPartitionedCall/sequential/bidirectional/forward_lstm/zeros_1/Const", "shape": [], "dtype": "float32"}, {"name": "StatefulPartitionedCall/sequential/bidirectional/forward_lstm/PartitionedCall/TensorArrayUnstack/TensorListFromTensor/element_shape", "shape": [2], "dtype": "int32"}, {"name": "StatefulPartitionedCall/sequential/bidirectional/forward_lstm/Read/ReadVariableOp", "shape": [128, 256], "dtype": "float32"}, {"name": "StatefulPartitionedCall/sequential/bidirectional/forward_lstm/strided_slice/stack", "shape": [1], "dtype": "int32"}, {"name": "StatefulPartitionedCall/sequential/bidirectional/forward_lstm/strided_slice/stack_1", "shape": [1], "dtype": "int32"}, {"name": "StatefulPartitionedCall/sequential/bidirectional/forward_lstm/strided_slice/stack_2", "shape": [1], "dtype": "int32"}, {"name": "StatefulPartitionedCall/sequential/bidirectional/forward_lstm/zeros/packed/1", "shape": [], "dtype": "int32"}, {"name": "StatefulPartitionedCall/sequential/bidirectional/forward_lstm/zeros/Const", "shape": [], "dtype": "float32"}, {"name": "StatefulPartitionedCall/sequential/bidirectional/forward_lstm/Read_1/ReadVariableOp", "shape": [64, 256], "dtype": "float32"}, {"name": "StatefulPartitionedCall/sequential/bidirectional/forward_lstm/Read_2/ReadVariableOp", "shape": [256], "dtype": "float32"}, {"name": "StatefulPartitionedCall/sequential/bidirectional/forward_lstm/PartitionedCall/time", "shape": [], "dtype": "int32"}, {"name": "StatefulPartitionedCall/sequential/bidirectional/forward_lstm/PartitionedCall/transpose/perm", "shape": [3], "dtype": "int32"}, {"name": "StatefulPartitionedCall/sequential/bidirectional/forward_lstm/PartitionedCall/strided_slice/stack", "shape": [1], "dtype": "int32"}, {"name": "StatefulPartitionedCall/sequential/bidirectional/forward_lstm/PartitionedCall/strided_slice/stack_1", "shape": [1], "dtype": "int32"}, {"name": "StatefulPartitionedCall/sequential/bidirectional/forward_lstm/PartitionedCall/strided_slice/stack_2", "shape": [1], "dtype": "int32"}, {"name": "StatefulPartitionedCall/sequential/bidirectional/forward_lstm/PartitionedCall/while/loop_counter", "shape": [], "dtype": "int32"}, {"name": "StatefulPartitionedCall/sequential/bidirectional/forward_lstm/PartitionedCall/TensorArrayV2Stack/TensorListStack/element_shape", "shape": [2], "dtype": "int32"}, {"name": "StatefulPartitionedCall/sequential/bidirectional/forward_lstm/PartitionedCall/transpose_1/perm", "shape": [3], "dtype": "int32"}, {"name": "StatefulPartitionedCall/sequential/bidirectional/backward_lstm/PartitionedCall/TensorArrayV2_1/element_shape", "shape": [2], "dtype": "int32"}, {"name": "StatefulPartitionedCall/sequential/bidirectional/backward_lstm/zeros_1/packed/1", "shape": [], "dtype": "int32"}, {"name": "StatefulPartitionedCall/sequential/bidirectional/backward_lstm/zeros_1/Const", "shape": [], "dtype": "float32"}, {"name": "StatefulPartitionedCall/sequential/bidirectional/backward_lstm/PartitionedCall/ReverseV2/axis", "shape": [1], "dtype": "int32"}, {"name": "StatefulPartitionedCall/sequential/bidirectional/backward_lstm/PartitionedCall/TensorArrayUnstack/TensorListFromTensor/element_shape", "shape": [2], "dtype": "int32"}, {"name": "StatefulPartitionedCall/sequential/bidirectional/backward_lstm/Read/ReadVariableOp", "shape": [128, 256], "dtype": "float32"}, {"name": "StatefulPartitionedCall/sequential/bidirectional/backward_lstm/strided_slice/stack", "shape": [1], "dtype": "int32"}, {"name": "StatefulPartitionedCall/sequential/bidirectional/backward_lstm/strided_slice/stack_1", "shape": [1], "dtype": "int32"}, {"name": "StatefulPartitionedCall/sequential/bidirectional/backward_lstm/strided_slice/stack_2", "shape": [1], "dtype": "int32"}, {"name": "StatefulPartitionedCall/sequential/bidirectional/backward_lstm/zeros/packed/1", "shape": [], "dtype": "int32"}, {"name": "StatefulPartitionedCall/sequential/bidirectional/backward_lstm/zeros/Const", "shape": [], "dtype": "float32"}, {"name": "StatefulPartitionedCall/sequential/bidirectional/backward_lstm/Read_1/ReadVariableOp", "shape": [64, 256], "dtype": "float32"}, {"name": "StatefulPartitionedCall/sequential/bidirectional/backward_lstm/Read_2/ReadVariableOp", "shape": [256], "dtype": "float32"}, {"name": "StatefulPartitionedCall/sequential/bidirectional/backward_lstm/PartitionedCall/time", "shape": [], "dtype": "int32"}, {"name": "StatefulPartitionedCall/sequential/bidirectional/backward_lstm/PartitionedCall/transpose/perm", "shape": [3], "dtype": "int32"}, {"name": "StatefulPartitionedCall/sequential/bidirectional/backward_lstm/PartitionedCall/strided_slice/stack", "shape": [1], "dtype": "int32"}, {"name": "StatefulPartitionedCall/sequential/bidirectional/backward_lstm/PartitionedCall/strided_slice/stack_1", "shape": [1], "dtype": "int32"}, {"name": "StatefulPartitionedCall/sequential/bidirectional/backward_lstm/PartitionedCall/strided_slice/stack_2", "shape": [1], "dtype": "int32"}, {"name": "StatefulPartitionedCall/sequential/bidirectional/backward_lstm/PartitionedCall/while/loop_counter", "shape": [], "dtype": "int32"}, {"name": "StatefulPartitionedCall/sequential/bidirectional/backward_lstm/PartitionedCall/TensorArrayV2Stack/TensorListStack/element_shape", "shape": [2], "dtype": "int32"}, {"name": "StatefulPartitionedCall/sequential/bidirectional/backward_lstm/PartitionedCall/transpose_1/perm", "shape": [3], "dtype": "int32"}, {"name": "StatefulPartitionedCall/sequential/bidirectional/ReverseV2/axis", "shape": [1], "dtype": "int32"}, {"name": "StatefulPartitionedCall/sequential/bidirectional/concat/axis", "shape": [], "dtype": "int32"}, {"name": "StatefulPartitionedCall/sequential/bidirectional_1/backward_gru/PartitionedCall/transpose/perm", "shape": [3], "dtype": "int32"}, {"name": "StatefulPartitionedCall/sequential/bidirectional_1/backward_gru/PartitionedCall/strided_slice/stack", "shape": [1], "dtype": "int32"}, {"name": "StatefulPartitionedCall/sequential/bidirectional_1/backward_gru/PartitionedCall/strided_slice/stack_1", "shape": [1], "dtype": "int32"}, {"name": "StatefulPartitionedCall/sequential/bidirectional_1/backward_gru/PartitionedCall/strided_slice/stack_2", "shape": [1], "dtype": "int32"}, {"name": "StatefulPartitionedCall/sequential/bidirectional_1/backward_gru/PartitionedCall/while/loop_counter", "shape": [], "dtype": "int32"}, {"name": "StatefulPartitionedCall/sequential/bidirectional_1/backward_gru/PartitionedCall/TensorArrayV2Stack/TensorListStack/element_shape", "shape": [2], "dtype": "int32"}, {"name": "StatefulPartitionedCall/sequential/bidirectional_1/backward_gru/PartitionedCall/strided_slice_2/stack", "shape": [1], "dtype": "int32"}, {"name": "StatefulPartitionedCall/sequential/bidirectional_1/backward_gru/PartitionedCall/strided_slice_2/stack_1", "shape": [1], "dtype": "int32"}, {"name": "StatefulPartitionedCall/sequential/bidirectional_1/backward_gru/PartitionedCall/strided_slice_2/stack_2", "shape": [1], "dtype": "int32"}, {"name": "StatefulPartitionedCall/sequential/bidirectional_1/concat/axis", "shape": [], "dtype": "int32"}, {"name": "StatefulPartitionedCall/sequential/dense/MatMul/ReadVariableOp", "shape": [64, 32], "dtype": "float32"}, {"name": "StatefulPartitionedCall/sequential/dense/BiasAdd/ReadVariableOp", "shape": [32], "dtype": "float32"}, {"name": "StatefulPartitionedCall/sequential/dense_1/MatMul/ReadVariableOp", "shape": [32, 5], "dtype": "float32"}, {"name": "StatefulPartitionedCall/sequential/dense_1/BiasAdd/ReadVariableOp", "shape": [5], "dtype": "float32"}, {"name": "unknown", "shape": [15000, 128], "dtype": "float32"}, {"name": "StatefulPartitionedCall/sequential/embedding/embedding_lookup/axis", "shape": [], "dtype": "int32"}, {"name": "StatefulPartitionedCall/sequential/bidirectional/forward_lstm/PartitionedCall/while/body/_61/while/split/split_dim", "shape": [], "dtype": "int32"}, {"name": "StatefulPartitionedCall/sequential/bidirectional/forward_lstm/PartitionedCall/while/body/_61/while/TensorArrayV2Read/TensorListGetItem/element_shape", "shape": [2], "dtype": "int32"}, {"name": "StatefulPartitionedCall/sequential/bidirectional/forward_lstm/PartitionedCall/while/body/_61/while/add_2/y", "shape": [], "dtype": "int32"}, {"name": "StatefulPartitionedCall/sequential/bidirectional/forward_lstm/PartitionedCall/while/body/_61/while/add_3/y", "shape": [], "dtype": "int32"}, {"name": "StatefulPartitionedCall/sequential/bidirectional/backward_lstm/PartitionedCall/while/body/_121/while/split/split_dim", "shape": [], "dtype": "int32"}, {"name": "StatefulPartitionedCall/sequential/bidirectional/backward_lstm/PartitionedCall/while/body/_121/while/TensorArrayV2Read/TensorListGetItem/element_shape", "shape": [2], "dtype": "int32"}, {"name": "StatefulPartitionedCall/sequential/bidirectional/backward_lstm/PartitionedCall/while/body/_121/while/add_2/y", "shape": [], "dtype": "int32"}, {"name": "StatefulPartitionedCall/sequential/bidirectional/backward_lstm/PartitionedCall/while/body/_121/while/add_3/y", "shape": [], "dtype": "int32"}, {"name": "StatefulPartitionedCall/sequential/bidirectional_1/forward_gru/PartitionedCall/while/body/_181/while/TensorArrayV2Write/TensorListSetItem/index", "shape": [], "dtype": "int32"}, {"name": "StatefulPartitionedCall/sequential/bidirectional_1/forward_gru/PartitionedCall/while/body/_181/while/sub/x", "shape": [], "dtype": "float32"}, {"name": "StatefulPartitionedCall/sequential/bidirectional_1/forward_gru/PartitionedCall/while/body/_181/while/split/split_dim", "shape": [], "dtype": "int32"}, {"name": "StatefulPartitionedCall/sequential/bidirectional_1/forward_gru/PartitionedCall/while/body/_181/while/TensorArrayV2Read/TensorListGetItem/element_shape", "shape": [2], "dtype": "int32"}, {"name": "StatefulPartitionedCall/sequential/bidirectional_1/forward_gru/PartitionedCall/while/body/_181/while/split_1/split_dim", "shape": [], "dtype": "int32"}, {"name": "StatefulPartitionedCall/sequential/bidirectional_1/forward_gru/PartitionedCall/while/body/_181/while/add_4/y", "shape": [], "dtype": "int32"}, {"name": "StatefulPartitionedCall/sequential/bidirectional_1/forward_gru/PartitionedCall/while/body/_181/while/add_5/y", "shape": [], "dtype": "int32"}, {"name": "StatefulPartitionedCall/sequential/bidirectional_1/backward_gru/PartitionedCall/while/body/_241/while/TensorArrayV2Write/TensorListSetItem/index", "shape": [], "dtype": "int32"}, {"name": "StatefulPartitionedCall/sequential/bidirectional_1/backward_gru/PartitionedCall/while/body/_241/while/sub/x", "shape": [], "dtype": "float32"}, {"name": "StatefulPartitionedCall/sequential/bidirectional_1/backward_gru/PartitionedCall/while/body/_241/while/split/split_dim", "shape": [], "dtype": "int32"}, {"name": "StatefulPartitionedCall/sequential/bidirectional_1/backward_gru/PartitionedCall/while/body/_241/while/TensorArrayV2Read/TensorListGetItem/element_shape", "shape": [2], "dtype": "int32"}, {"name": "StatefulPartitionedCall/sequential/bidirectional_1/backward_gru/PartitionedCall/while/body/_241/while/split_1/split_dim", "shape": [], "dtype": "int32"}, {"name": "StatefulPartitionedCall/sequential/bidirectional_1/backward_gru/PartitionedCall/while/body/_241/while/add_4/y", "shape": [], "dtype": "int32"}, {"name": "StatefulPartitionedCall/sequential/bidirectional_1/backward_gru/PartitionedCall/while/body/_241/while/add_5/y", "shape": [], "dtype": "int32"}]}]}